model/test_dev.ckpt (torch, 912334 bytes, 1720 tensors)

loss.picnn.flows.0.icnn.Wzs.0.weight f4 [20, 4]
00000000: e6d6 c33e ea10 d73e f2bd 02be 5cf7 ed3e
00000010: f8c7 f8bd a442 e43d 18b0 86be 1806 a13e
00000020: 721a e53e caf7 c0be 2881 e23e ce04 b73d
00000030: 131c c43e 985c 7f3d 2bd7 7c3e 566b adbd
00000040: e290 cc3e a473 9b3d aa7d 80be 082e 043e
00000050: 9e24 7abe 248e 62bd 9a21 5bbe c663 b43e
00000060: 1e9a cbbe 4c4f 6dbe 3e05 0abe fe05 9bbe
00000070: c7b4 523d 6e83 00bf 7236 ed3e 4788 ddbe
00000080: c292 c93e aa1f ac3d 2950 35be 5272 a13e
00000090: becd 9f3d 7225 d63e f24a 4e3d 6640 2cbe
000000a0: a6f9 043e 5c3e 13be aaeb 583e f856 ea3e
000000b0: 0bcc 983e 46df 6ebe aa97 993e 05cc ab3d
000000c0: 2e7e 883e ebae 9dbe b085 00bf 127f 48be
000000d0: 3071 ccbe 02d6 d63e acd9 123e d4bb 5b3e
000000e0: cc35 293e aa59 6abc e4e5 cf3e 4220 bebe
000000f0: 5e96 283d 8d77 b7be 1c55 313e 2237 3cbe
00000100: 0ce3 233e 7ea2 e6bd 0c9b dc3e 853d 9fbe
00000110: 1861 9dbe 26df 9cbe 244c ed3e 3125 2e3e
00000120: 9a00 fc3e ed06 d5be 6e82 ffbe 8cc0 cabe
00000130: 183b b4be 7afd 533e 8a46 373e 1ba4 da3e
0.38249892 0.42005092 -0.12767771 0.46477783 -0.12147516 0.11145523 -0.26306224 0.31449962
0.4474674 -0.37689048 0.44239163 0.08936463 0.3830267 0.062344164 0.24691455 -0.08467738
0.39954287 0.07590416 -0.25095874 0.12908185 -0.24428031 -0.055311337 -0.21399537 0.3523237
-0.3976602 -0.2317478 -0.13478562 -0.3027801 0.051441934 -0.50200546 0.463306 -0.43268034
0.3936978 0.08404477 -0.1770636 0.31532532 0.07802914 0.41825444 0.050364442 -0.16821441
0.12985858 -0.14379257 0.21183649 0.45769477 0.29843172 -0.2332736 0.29998523 0.08388523
0.26658767 -0.30797514 -0.5020399 -0.19579723 -0.39930105 0.4196015 0.14340848 0.2145837
0.16524428 -0.014303604 0.4060508 -0.37133986 0.041159026 -0.35833398 0.17317623 -0.18380406
0.1600458 -0.11261462 0.4308704 -0.31101623 -0.3073814 -0.30639 0.46347153 0.17006375
0.4921921 -0.41606846 -0.49904197 -0.39600027 -0.35201335 0.20702162 0.17898002 0.42703328

loss.picnn.flows.0.icnn.Wzs.0.bias f4 [20]
00000000: a0b6 83be d2d2 adbe 2162 863e ba68 4fbe
00000010: f216 9c3e c6fe f4bd 6676 923e fbcc c7be
00000020: 0008 81be b85d 203e 92fe d03d 1afa 06be
00000030: 64cc 983e e28f ae3e aaf6 b9be 929c 8abe
00000040: 4a8c e93e 8894 30be d428 35be 7902 f8be
-0.2572527 -0.33949906 0.2624674 -0.20254794 0.30486256 -0.11962657 0.28605956 -0.39023575
-0.25201416 0.15660751 0.102048054 -0.13181344 0.29843438 0.3409415 -0.36321002 -0.2707258
0.45614845 -0.1724416 -0.17691356 -0.48439386

loss.picnn.flows.0.icnn.Wzs.1.weight f4 [20, 20]
00000000: dd15 03be ee66 653d f943 f2bc 4f53 26be
00000010: 9233 ab3b f671 1cbe 5a56 42be c2f6 fbbd
00000020: 6e7b 48be 4cef 11be 62de 643e 82cc 2c3d
00000030: b738 8d3d c08c 55be e465 16be 4a24 98bd
00000040: bd8a 0f3d 6f8d 49be 3e3f c5bd 3703 09be
00000050: cad1 273a 1c49 aabd db93 7ebc 8931 1bbe
00000060: 4c2f 1dbe d691 05be 1edc 9cbd 70b0 34be
00000070: 40ff 3f3e 9afb 35bd e4f2 443e f29b 8e3d
00000080: 09ed 41be 6a83 1e3e 50e5 7bbd f06f afbd
00000090: 920c 3ebe 0caa 63be 1a16 833d 78e8 47bd
000000a0: 086a b23d 54e5 3bbe eef5 293e 0c26 28be
000000b0: 4418 1ebd f659 3f3d f868 ec3d 7cf7 383e
000000c0: 8ea2 503e 5ab4 35be d022 663d 3629 c5bd
000000d0: 62dd c8bc d966 2bbe a69e 503e 7f09 28be
000000e0: 2cdd f43d b4f6 a03d 58e4 943d 8d8a f7bd
000000f0: c62e 503e e177 493d 9683 eb3c bed1 49be
00000100: b93b c03d 2654 09bd 47d9 d1bd 5abf 443e
00000110: 4a24 4c3d 4272 fdbd 0ce5 e7bd 5c59 2fbc
00000120: 87bb ff3d 5413 6abd d6a7 02be e0c8 9cbd
00000130: 5413 2bbe 6154 a33d 4045 313e b497 57be
00000140: 86cd 543d c8b6 ec3d 1cee 253d fa24 a3bd
00000150: b810 ef3d cdb4 f03d 3a2d ab3d fabf 20bd
00000160: d1a4 72bd 3872 c33c 4736 22bd c694 88bd
00000170: 2b5c 123e 28d2 443e d841 b5bc f8e0 4cbd
00000180: 5bcc 573b 70d4 5abc 4e39 5c3d f265 803d
00000190: 2cfc 4fbe cafd a8bd 08d4 403e 2b69 b23d
000001a0: 553e 36bc 3a0b 0abe 821c 0cbe 981e 4dbe
000001b0: 5a4d 95bd 76b3 9a3d e501 123e ec6b d33d
000001c0: c86d 4abe 54b5 09be a689 10bd a288 5d3e
000001d0: 0283 043d 9f27 6dbd ad79 bd3d 346a aebd
000001e0: 8e3a 14be 1142 273e a657 d0bd 8cc7 37bd
000001f0: fed5 63be b850 193e 1e6e 2d3e 8f17 a73d
00000200: 1cb7 1fbe 581d 62be f610 3abe ceb9 2a3e
00000210: b3db db3d 3ebf 403e 4408 f03d 2621 683d
00000220: 5bf0 0bbb 562b 2ebe 9232 44be be25 56be
00000230: 8878 bb3d 4cbf e0bd a96b 38bd 70c9 03be
00000240: b3f8 26bd 6f24 21be dea9 15be ff00 983d
00000250: 762a 88bd b64e 0d3e 6300 93bd 8601 28be
00000260: 199e 21bd 2dfc ddbd 1a0d 8cbd a0fa 59be
00000270: bc2a 003e 0d6f 1fbe 5e3b e63d 36ed cf3d
00000280: f3a1 233e fa98 2fbe 00af 243e c08e d8bd
00000290: e7d0 a93d 241d 573e a647 01bd 9fe5 daba
000002a0: 8217 53bd a043 3fbe cebd db3d 755e 63be
000002b0: ee1c 0e3e 745e 2b3e 5a9b 583e 7dca 57bd
000002c0: 4c23 3cbe b8bf 4d3d 44fd fc3d 4ee7 63be
000002d0: f8d7 4fbd 7440 09be 6e4d a0bc e068 e1bd
000002e0: c837 bbbd 885b 91bd a69b 59be 16ea 3b3e
000002f0: b0fa 3f3e 4faf 0fbd b0af d0bc e4ee babd
00000300: 5acd 4ebe 64d8 5ebe 2240 aa3d fe6b fbbd
00000310: 7134 13be b1f7 8ebc b583 98bd ef25 94bd
00000320: 8ffe eb3b 9c31 42bd 34c3 9dbd 9251 dbbd
00000330: d65c 3abe 2e05 403e ca4e b7bd 6ed3 723d
00000340: 82ea 9ebd 7665 943c 4872 553e 08f1 d23d
00000350: a975 46be a0cb b53d 5a62 593e 2e14 713d
00000360: f08a 193e eec2 613e f855 0cbd ec33 3e3d
00000370: 7920 1fbe 9459 3cbd ab8f 293e 0dc7 ea3d
00000380: a3f0 10be 0aa3 37be 708b 1cbe 65ef 61be
00000390: 06c3 30be beef 62bd ea7c 1a3e 120c 193d
000003a0: 9839 2ebe 92af 37be 82f3 e33d d03e 2abe
000003b0: de3d e1bc 10c7 db3d 6fe9 d3bd bdcd c6bc
000003c0: 5f5a 9fbc ba89 58bd ec3c e8bd 6625 4cbe
000003d0: be1e 39be 523c f5bd 4d29 5d3e ff21 ddbd
000003e0: dcca 19be e0e4 5d3d e834 7c3d 78ee fa3d
000003f0: 840a 2e3e 9c17 ff3d e00b 63be acf5 a23c
-0.12801309 0.056006365 -0.029573428 -0.16242717 0.0052246535 -0.15277848 -0.18978253 -0.12302925
-0.19578335 -0.14251441 0.22350457 0.04218722 0.06895583 -0.20854473 -0.14687306 -0.074287966
0.03504442 -0.19682859 -0.09631203 -0.13380133 0.00064018054 -0.08314726 -0.015538181 -0.15155615
-0.15350074 -0.13043913 -0.076591715 -0.1764543 0.18749714 -0.0444294 0.1923328 0.06963338
-0.18938078 0.15479818 -0.061497986 -0.08566272 -0.18559483 -0.22232836 0.064007 -0.048805684
0.0871163 -0.183492 0.16597721 -0.16420764 -0.03859736 0.046716653 0.11543459 0.18063158
0.2037451 -0.1774458 0.056185544 -0.09627001 -0.024519626 -0.16738452 0.2037302 -0.16409872
0.11956248 0.07859555 0.072701156 -0.12086973 0.20330343 0.04918659 0.028749269 -0.19708917
0.09386391 -0.033527516 -0.102465205 0.1921362 0.049839295 -0.123753086 -0.11322984 -0.010702457
0.1248694 -0.05714734 -0.12759337 -0.07655501 -0.16706592 0.079750784 0.17311573 -0.21053964
0.051953815 0.115583 0.040510282 -0.07966037 0.11673111 0.11753235 0.08358236 -0.039245583
-0.059239212 0.023858175 -0.039602544 -0.06669001 0.14292972 0.19220793 -0.022126123 -0.050019234
0.0032928202 -0.013356313 0.053765588 0.062694445 -0.2031104 -0.082515314 0.18830884 0.087114654
-0.01112326 -0.13480845 -0.1368275 -0.20031202 -0.07290144 0.07553761 0.14258535 0.10323319
-0.1976844 -0.13448077 -0.03528752 0.21634153 0.0323515 -0.057899114 0.092517234 -0.085163504
-0.14475462 0.16333796 -0.101729676 -0.044868037 -0.222496 0.14972198 0.16936538 0.0815879
-0.15597194 -0.22081506 -0.18170533 0.16672441 0.10735264 0.18822953 0.117203265 0.056672238
-0.002135298 -0.17008719 -0.19159916 -0.20912835 0.09153849 -0.10973987 -0.045024548 -0.12869811
-0.04076452 -0.15736555 -0.1461558 0.07422065 -0.06648724 0.13799557 -0.07177808 -0.16406831
-0.039457414 -0.10839114 -0.068384364 -0.21287012 0.12516302 -0.15569706 0.11241792 0.10152666
0.15979747 -0.171482 0.16082382 -0.105741024 0.08291798 0.2100721 -0.03156247 -0.0016700512
-0.05153609 -0.1867814 0.10729562 -0.22204001 0.13878223 0.1673525 0.21153012 -0.052683342
-0.1837284 0.050231665 0.12352994 -0.22256204 -0.050743073 -0.13403493 -0.019568171 -0.110063314
-0.09141499 -0.07097536 -0.21250781 0.18351015 0.18747973 -0.035079297 -0.0254744 -0.09127596
-0.20195523 -0.21762234 0.083130136 -0.12276457 -0.14375474 -0.017452093 -0.07446996 -0.07233798
0.0072019766 -0.047410592 -0.07703248 -0.10708918 -0.18199477 0.18751976 -0.08950575 0.059283666
-0.077595726 0.018114787 0.20844376 0.10299879 -0.19380821 0.08876729 0.21228924 0.058857135
0.14994407 0.22047016 -0.034261674 0.046436235 -0.15539731 -0.045983866 0.16558711 0.11463747
-0.14154296 -0.17933288 -0.15287566 -0.22063978 -0.17261896 -0.055404417 0.15086713 0.037365027
-0.17014158 -0.17938069 0.1113043 -0.16625524 -0.02749532 0.107313275 -0.10347258 -0.024268026
-0.019452272 -0.05286572 -0.11339745 -0.19936141 -0.18078133 -0.11974396 0.21597786 -0.107975
-0.15018791 0.05417335 0.061573893 0.122525156 0.16996199 0.12455675 -0.22172499 0.019892536

loss.picnn.flows.0.icnn.Wzs.1.bias f4 [20]
00000000: de0f 5dbd f82e ddbd 4494 1e3d 302e 2b3e
00000010: 1808 333e 1206 d33d aeb3 28be 564d f6bd
00000020: 4afe 49bd eab7 28bd 8cbe 983c 3a77 51be
00000030: 6a0f 8e3d 44a6 2ebe e6ad 10be de38 3ebe
00000040: 1a7e 473e 6c3a 58be cafe 2c3e 0060 f4bb
-0.05397021 -0.10799974 0.038715616 0.16716838 0.17483556 0.10303892 -0.16474792 -0.120264694
-0.049314775 -0.04119102 0.018645547 -0.20455638 0.06936534 -0.17055613 -0.14128837 -0.1857638
0.19481698 -0.21116036 0.1689407 -0.007457733

loss.picnn.flows.0.icnn.Wzs.2.weight f4 [1, 20]
00000000: 9c57 01bc c47c 083e 7cb9 b9bc bee4 0b3e
00000010: d204 233e 5c7d 4abe 30a9 ae3d 967f 403d
00000020: fc7a 5f3d 9070 d03c dae7 3d3d a0b3 abbd
00000030: 620c d2bc 305f 573e e39b 123e 5e59 08bc
00000040: e00d 55be 8d78 803c c4db 1ebe 8094 2f3e
-0.007894423 0.13328844 -0.022671454 0.13661477 0.15919808 -0.19774383 0.08528364 0.046996675
0.054560646 0.025444299 0.04636369 -0.0838387 -0.02564067 0.21032405 0.14317279 -0.008322088
-0.20806074 0.015682483 -0.15513521 0.17146492

loss.picnn.flows.0.icnn.Wxs.0.weight f4 [20, 4]
00000000: e94f cfbe 91ed 07bb 54a3 fdbd bede 293e
00000010: 6b1d f23e 60c0 943d a28f 8e3e f18c bd3e
00000020: 5cbd eb3e 0ab1 1cbe aaaf 2bbe ed3c 613e
00000030: 9851 ddbd c6f1 7d3e fcd9 f3bd 3c83 bebe
00000040: b89d 2f3e f4b0 dd3d b20f 533e 6eb3 023f
00000050: feab ba3e 032d f73e 0ef6 813c 00b8 e6be
00000060: c0dc adbe 217c 9ebe 1cb9 e0be 5a72 87be
00000070: 3b55 e0be 10df f6be 7b45 8abe f265 05bf
00000080: d5fa acbe e9fd 363e 5aa7 eb3e c695 19be
00000090: 2c91 0bbe 9ce2 913e 918c 8bbe 80c8 74be
000000a0: 1690 a43e 7b9f e3be 815d 6c3d ca7b e23e
000000b0: fe19 0d3e 3893 2f3e 3718 c5be 3615 e43b
000000c0: 95ce c8bc b026 273e 9fe4 303e 50b4 ec3e
000000d0: cef1 bfbe 0e23 943c acb3 7abe fc5b d2be
000000e0: 1a28 37bd 5275 eabe 78a4 c83e 22eb 163d
000000f0: 86d5 89be 75d9 903e 1800 00bf 3bce 42be
00000100: 16ec 62bd 8666 e2be 8624 a1be 2489 dbbd
00000110: e25e d53e 9e13 f93e 9e6e a13e 0af5 aabe
00000120: bde4 b7be 2cd8 e53e e875 343e b470 053d
00000130: f29f 673d 363c cabe 5401 41be f66b 013f
-0.40490654 -0.0020740966 -0.12384668 0.16588876 0.4728807 0.07263255 0.27843958 0.37021592
0.46042907 -0.1530191 -0.1676623 0.21995898 -0.108065784 0.2479926 -0.119068116 -0.372095
0.17150009 0.10824767 0.20611456 0.5105504 0.36459345 0.4827653 0.015864398 -0.45062256
-0.3395748 -0.30954078 -0.43891227 -0.2645443 -0.43815026 -0.48217058 -0.27006134 -0.5210868
-0.3378512 0.17870297 0.46026117 -0.1499854 -0.13629597 0.28493202 -0.2725568 -0.2390461
0.3214118 -0.4445761 0.05770636 0.4423507 0.13779446 0.17146003 -0.38495037 0.0069605364
-0.024512568 0.16323352 0.17274712 0.46231318 -0.3748917 0.018083122 -0.24482602 -0.41085804
-0.04471598 -0.45792633 0.3918798 0.036845334 -0.26920718 0.28290907 -0.50000143 -0.19023983
-0.05540093 -0.44218844 -0.31473178 -0.10719517 0.41673952 0.4864778 0.31529707 -0.33390075
-0.359167 0.4489149 0.17623103 0.032578185 0.05654902 -0.39499062 -0.18848163 0.5055536

loss.picnn.flows.0.icnn.Wxs.0.bias f4 [20]
00000000: 319d f5bd a41d c9bc 2ee3 cdbe 14d2 8cbe
00000010: 7fda 2dbc ca5a 9bbe 183c 86bd ac56 4b3e
00000020: df47 fcbe ca93 183e 84e6 a6be 2f71 6dbe
00000030: ea04 403e 16d1 cb3e 3922 08be de83 4fbe
00000040: 73a4 e7be 44d1 7cbe 5e9f ddbe 0e22 e8bd
-0.119928725 -0.024550267 -0.40212387 -0.27504027 -0.010611176 -0.30342704 -0.06554431 0.19857281
-0.49273583 0.14900127 -0.32597744 -0.23187707 0.18751875 0.39807957 -0.13294305 -0.20265147
-0.45242652 -0.24689204 -0.4328565 -0.113346204

loss.picnn.flows.0.icnn.Wxs.1.weight f4 [1, 4]
00000000: a096 063e f685 ccbe af0e c03e 80fa 793e
0.13143396 -0.39945954 0.37511203 0.24411964

loss.picnn.flows.0.icnn.Wcs.0.weight f4 [20, 16]
00000000: 08ac 7dbe 1c02 fdbd 24c7 a73d fa5d 67bd
00000010: ba9c f3bc 26c6 efbd fe57 463e 5cae 10be
00000020: 7e01 653e b8b1 d13c 3572 423d 8ea2 4f3e
00000030: f6af 2bbd aef2 14be 6d02 1bbd 2041 4b3e
00000040: 4327 40be e4b9 553d 2078 7abe fa43 023e
00000050: d2bc b93d ccbb c33b 5ea0 cf3d 4066 5fb9
00000060: 5097 1b3e 5810 40be 926b 28bd dc49 ed3d
00000070: a4a6 7e3e f2f2 fd3d 243b 37be c05f 413e
00000080: 243e 53bd 922e 4abd a667 68be a653 08bd
00000090: b619 393e c2e0 1e3d d92d 0ebe b8a9 a43d
000000a0: e0aa c6bd 3e7b 653e 207b 5fbe 0e7f bdbd
000000b0: 6829 75be 6040 c3bd 88f4 9d3d 2ac9 7b3e
000000c0: 489a 323d 6c93 833e 3094 3c3d e365 163e
000000d0: b14a 4e3e 7018 623e c471 07be 690d 693e
000000e0: 5ff5 0b3e b343 0cbe d2b2 e3bd 202b 5cbe
000000f0: ec33 7f3d b897 46be 4d0a ce3d b4a0 a83d
00000100: 106a 52be f6a0 af3d 1012 afbc 840a 063e
00000110: bdad 1d3e f096 6cbe 87ed 803e b569 5d3e
00000120: 537c 603d cec0 81be 28fc adbd 94eb d0bd
00000130: da20 75bd 075d 1e3e c2d6 a83d 5f6f 5a3e
00000140: 7846 cabd 983b 9f3d 6235 b63d c8ed 5dbe
00000150: 9adb 7cbe 026d 0bbe e661 233e da3b 74be
00000160: b5ea 44be 0810 1d3e 709a 073e d5bd 603e
00000170: 2ed2 42be 6457 40be 8c0e 073e 5747 573e
00000180: 9e79 363e 9662 553d 9519 c23d 5658 8e3e
00000190: 72a2 08be a3bf cfbd a24f 5e3e 4cb0 10be
000001a0: fad8 5fbe 1c89 3a3e b291 3d3d 567e d33a
000001b0: a265 b8bd 6cfa f73b a440 683e 212b eebd
000001c0: 46e0 913c ccca 003e 290d 29be 19a3 883e
000001d0: c25f e0bd 3ab2 5bbd ae60 29bd 3ab0 15be
000001e0: 56b8 99be daf6 0e3e 94fd 3e3d be86 91be
000001f0: ae35 1cbe 6f79 813e 0651 c23d e236 f53d
00000200: 5dd9 19be 3ce1 e6bd 48e8 14bd fe53 41bd
00000210: 9ccb 2fbe d09b 8e3c 4ac1 b63c 24be ffbc
00000220: 3a6a 263d e650 bcbd 8e2e 793d 7281 c33d
00000230: d3a1 06be 1514 80be aa33 083e be1d 6e3d
00000240: dc3c 07be f483 6e3e e843 e5bd 7882 243e
00000250: 6170 fb3d 79e8 5ebe 66ed 183e c86b 6dbe
00000260: bd48 eabd 27b0 cabc 47af 32be 10b2 823e
00000270: 6ea5 51bd 110a bf3d e294 5fbe cc01 0c3e
00000280: 0433 2ebd d67f 17be 91ea 2f3d cc14 293e
00000290: d40a 803e 74e7 e4bd 6dbb 91bd 823b 9a3d
000002a0: 689f 63bc 704d 853d 03d0 fa3d d819 07be
000002b0: fedc 213e 585c 603e 18d9 a4bd 8e9d 603e
000002c0: f505 f13d b440 5c3e 0898 11be 0019 06be
000002d0: 6efe 9bbd d8de ec3b 7663 0f3e 1b20 15be
000002e0: 1e3c 173e 14a5 a0bd 2416 193e b2e1 4c3a
000002f0: e1b6 61be 9a13 11be b242 36be 441e f13d
00000300: 5aad 30be acfc e4bc 523d 603d d204 15be
00000310: e839 8b3d e5a9 80be ecb9 42be 18be 6abe
00000320: 6dcd 53bd f1d7 9bbd e6d7 ff3c d06f 09bd
00000330: de0a ee3d 5634 653e 7ea8 c03d ba73 d8bd
00000340: 1c6d 77be aa7d 9f3d 3ca9 f9bd 1ed8 ea3d
00000350: 1ad4 243e 303f ab3d 1496 5d3e 0a5a 703e
00000360: 4aba b53d dead 1ebe b1d8 593e 3a8f d2bd
00000370: 8ed2 f4bd ac80 4c3e d660 4e3e 8654 843d
00000380: 7e4a a03c 2514 55be 86be a8bc 1ed7 7a3e
00000390: 7e24 8c3d 256f ba3c 7e4b 41bd d8bb a3bd
000003a0: 394c 0c3e 8612 f23c 3c44 113e 060d 93bd
000003b0: 4eed e73d 6891 d63d de5b 383d 3697 253e
000003c0: 4642 213e cbe3 693e 2259 473e d831 81bd
000003d0: 1a93 57be 803f 2d3d 6b10 2dbb 579d 80bd
000003e0: 5c1e 26bd 3959 a53c ca3b 333e 8d8c 963d
000003f0: d48a b3bd ec42 d7bd ff0e 73bd 8876 c5bd
-0.24772656 -0.12353918 0.0819228 -0.056486107 -0.029737819 -0.11707716 0.19369504 -0.14129013
0.2236385 0.025597438 0.047472198 0.20276853 -0.041915856 -0.145457 -0.03784411 0.19849062
-0.18764977 0.052179232 -0.24459887 0.12721244 0.09069218 0.005973315 0.101380095 -0.00021305028
0.1519444 -0.18756235 -0.041118212 0.11586353 0.24868256 0.12399854 -0.17893654 0.18884182
-0.051572934 -0.04936082 -0.22695789 -0.0332829 0.18076214 0.038788565 -0.13884677 0.08040184
-0.097005606 0.22410294 -0.21824312 -0.092527494 -0.23941576 -0.09533763 0.07712656 0.24588457
0.043604165 0.2569841 0.04603976 0.14687304 0.2014568 0.22079635 -0.13226992 0.22759022
0.1366782 -0.136977 -0.11118092 -0.21500826 0.062305376 -0.19393814 0.100605585 0.08233777
-0.20548272 0.08575623 -0.021370918 0.13089949 0.15398307 -0.23104453 0.2518122 0.21622355
0.054806065 -0.2534241 -0.084953606 -0.10201183 -0.059845783 0.15465175 0.08244087 0.21331547
-0.09876722 0.077750385 0.08896901 -0.21672738 -0.24693146 -0.13615802 0.15955314 -0.23850957
-0.19230159 0.15338147 0.13242507 0.21947415 -0.1902549 -0.18783337 0.13189143 0.21023308
0.17819831 0.052095972 0.09477536 0.2780177 -0.13343218 -0.10143974 0.21710065 -0.14129752
-0.21860114 0.18216366 0.046281524 0.0016135674 -0.0900376 0.0075676944 0.22680908 -0.1162932
0.017807137 0.12577361 -0.16508926 0.26686934 -0.10955764 -0.053636767 -0.041351967 -0.14618006
-0.3002345 0.13961354 0.04662855 -0.28423113 -0.15254852 0.2528796 0.0948811 0.11973359
-0.15024324 -0.11273429 -0.036354333 -0.04719924 -0.17167515 0.017408282 0.022308964 -0.031218596
0.04062865 -0.09195118 0.060835414 0.09546174 -0.13147669 -0.2501532 0.13300958 0.058133833
-0.1320681 0.23292524 -0.11194593 0.16065395 0.12277294 -0.21768369 0.1493431 -0.23185647
-0.11439655 -0.0247422 -0.17449676 0.25526476 -0.051183157 0.09328092 -0.21834138 0.1367256
-0.04252912 -0.1479486 0.04294831 0.1651184 0.2500826 -0.11176959 -0.07115827 0.075308815
-0.013892986 0.06508911 0.12246706 -0.13193452 0.15806958 0.21910226 -0.0804922 0.21935102
0.11768714 0.21509057 -0.14218152 -0.13095474 -0.07616888 0.0072287135 0.14002785 -0.14563029
0.14769027 -0.07843986 0.14949852 0.00078156136 -0.22042419 -0.14167634 -0.1779888 0.11773351
-0.17253628 -0.027952515 0.05474598 -0.1455262 0.06798154 -0.2512962 -0.19016236 -0.22924078
-0.05170958 -0.07609547 0.031230878 -0.0335539 0.116231665 0.22383246 0.09407137 -0.10568948
-0.24162716 0.077876404 -0.12190482 0.11467002 0.16096535 0.083616614 0.21639282 0.23471847
0.088734224 -0.15496013 0.21274067 -0.102812245 -0.119542226 0.1997096 0.20154127 0.06461434
0.01956677 -0.20808466 -0.020598661 0.24496123 0.06842898 0.022758076 -0.047191136 -0.07994813
0.13700952 0.029549848 0.14186186 -0.071802184 0.11324559 0.10476953 0.045009486 0.16170964
0.15747938 0.22840802 0.19467595 -0.06308335 -0.21052209 0.042296886 -0.002640749 -0.0628001
-0.040556297 0.020184146 0.17503276 0.07351027 -0.08766714 -0.10510811 -0.059340473 -0.09641749

loss.picnn.flows.0.icnn.Wcs.0.bias f4 [20]
00000000: 19ff a7bd 0e04 513e beb8 b53d ce79 e1bc
00000010: 3016 a33d 64d3 bcbd d6d9 193e 7129 073e
00000020: a87d 763d 667c f2bd de13 903e 18b9 5abd
00000030: aac0 f0bd 0855 ff3d 0b64 4e3e 6256 793e
00000040: a6aa e23d de86 c6bd 1557 d73d c5e8 4d3e
-0.08202953 0.20411703 0.088731274 -0.027523901 0.07963216 -0.09220007 0.15024504 0.13199402
0.06017843 -0.11840133 0.28140157 -0.053399175 -0.11755498 0.1246739 0.20155351 0.24349359
0.11067705 -0.096936926 0.105146565 0.20108326

loss.picnn.flows.0.icnn.Wczs.0.weight f4 [20, 20]
00000000: 978e d4bb 85c6 d8bb 406a cc3b 922e ff3b
00000010: 8afa 1b3c aabd eebb a4ca 5e3c 8401 0c3c
00000020: 2269 d7bb 96f3 01bc 0c72 023d b261 dcbb
00000030: 8a0f f2bb b0e2 ecbb a888 8a3b 4e15 d8bb
00000040: 203c 25ba 3496 dbbb c210 f3bb 9aad e4bb
00000050: e3a7 f7bb 7274 fcbb 688a e23b 5240 073c
00000060: bcf9 2b3c e818 09bc a633 8b3c 26e6 223c
00000070: 3e79 fabb 32f0 13bc ecd3 173d 81ad ffbb
00000080: 6607 0bbc 8e87 08bc 6221 bb3b 8051 fabb
00000090: 7bd7 e0ba 56fb febb 28c8 0bbc 3cd3 03bc
000000a0: 4825 9dbb c059 9fbb 44d7 b03b e6d3 f33b
000000b0: a0df 063c ea12 b7bb 8c6c fd3b b4b5 d53b
000000c0: 5ac1 9fbb 96f4 cabb 130b bf3c 42ea a3bb
000000d0: 8917 b8bb 6e65 b0bb af36 073b 22cf a2bb
000000e0: f08a a039 c629 a3bb b245 b8bb 7075 adbb
000000f0: b967 abbb ef1a aebb 624d b73b a029 f83b
00000100: e02c 0c3c d6a0 c4bb ed95 153c 48a6 e73b
00000110: 04f3 adbb 4c01 d8bb 204b cf3c 3428 b2bb
00000120: 4228 c6bb 74d4 bfbb a51e 4e3b e45c b0bb
00000130: 0ad9 a4b9 ca6e b1bb 486e c6bb cc32 bbbb
00000140: e417 c5bb 3297 c8bb e3be c13b 1938 f43b
00000150: 9c75 123c 4f5b ddbb 2270 4b3c 2e7b 043c
00000160: 2498 c7bb 5075 f0bb 5e50 f13c b4f5 cbbb
00000170: 9ede dfbb e6a8 dabb 7ba0 8a3b ac8b c8bb
00000180: b7d5 a0ba 2b4d cbbb 9896 e0bb f2eb d3bb
00000190: 709d d7bb e994 dbbb c81d d13b 8e0a 033c
000001a0: 1f79 1e3c d1e5 f0bb 0c23 603c 7edb 0f3c
000001b0: 122e dabb ed86 02bc 1157 033d 0adc debb
000001c0: 79b2 f3bb 8330 efbb a8a2 993b 761c dbbb
000001d0: 1237 afba af28 debb 04a9 f4bb 2110 e7bb
000001e0: c865 9cbb 8020 9fbb dc08 ac3b ab42 ec3b
000001f0: 1215 043c aca2 b5bb 08cd 013c 94c9 d13b
00000200: e010 9fbb c450 c9bb 60f7 be3c f85e a3bb
00000210: 9a5b b7bb fe0c b1bb ecff 073b f49a a1bb
00000220: a594 163a 9a88 a2bb 1aaf b7bb f667 acbb
00000230: 3cf1 f6bb 25f4 fbbb 10cb dc3b 3f3e 023c
00000240: afb0 283c 786b 08bc 2581 8d3c f2e9 203c
00000250: 2ecd f9bb ba14 13bc c214 183d 8107 ffbb
00000260: 9e7b 0abc 9a16 08bc fa99 bf3b 903e f9bb
00000270: 058e d1ba f958 febb a630 0bbc de46 03bc
00000280: d09e b1bb 0ece b4bb 41dc b93b 6495 f23b
00000290: c257 0c3c ce92 cabb 2b2b 283c aee3 ef3b
000002a0: d636 b4bb 4a39 debb 5fa7 d93c ea9b b8bb
000002b0: 07af ccbb c014 c7bb 219a 3d3b fb17 b6bb
000002c0: 92ee b1b9 2ed3 b7bb 113e cdbb f834 c1bb
000002d0: 0efa 90bb b60a 93bb 32fe a63b 4da6 e83b
000002e0: 342a fc3b e8b9 a8bb 04c3 e13b 1e8f c93b
000002f0: d64e 93bb 0cb8 babb 74fc af3c 7805 97bb
00000300: 827b a9bb 20ae a3bb 4be9 113b 0054 96bb
00000310: 6e19 85b9 6255 96bb 56a5 a9bb 18ed 9fbb
00000320: a93e 89bb 1fea 8abb 00ba ac3b 327e f83b
00000330: fc03 023c 54ff a3bb 6ca7 b03b 9c7c c03b
00000340: 0bca 8bbb 6475 b8bb ebfd a63c 3ce0 8fbb
00000350: aa77 a4bb e8b9 9cbb 10a0 073a aace 8fbb
00000360: ec4d 853a 5603 8fbb 3caf a4bb d328 9abb
00000370: d2ec 95bb 28e6 97bb 868e ad3b 82ed f23b
00000380: ec4a 043c c7e7 afbb 82bb e33b 9b26 cd3b
00000390: 8682 98bb 10bf c3bb 2213 b63c 7796 9cbb
000003a0: 0ab4 b0bb 5ed1 a8bb 4ed3 e03a 18db 9bbb
000003b0: 1a18 003a e9d1 9bbb 9de9 b0bb f64f a6bb
000003c0: f0fc c5bb d488 c9bb 8dee bd3b 8a1d f03b
000003d0: da54 113c a6c7 ddbb a45e 4d3c 4a97 033c
000003e0: 936d c8bb f4a4 f0bb 3010 f23c 26c6 ccbb
000003f0: 327c e0bb 04a1 dbbb 431c 953b 8a09 c9bb
-0.0064867246 -0.0066154622 0.006238252 0.007787534 0.009520182 -0.0072857933 0.013598118 0.008545283
-0.006573812 -0.007931611 0.031847045 -0.0067255134 -0.0073871063 -0.0072291717 0.0042277165 -0.0065943366
-0.000630321 -0.006701255 -0.007417769 -0.0069787027 -0.0075578555 -0.007704311 0.006913472 0.008255081
0.010496553 -0.0083677545 0.016992401 0.009942567 -0.0076438477 -0.009029435 0.03706734 -0.0078026657
-0.008485651 -0.0083331 0.0057107667 -0.00763911 -0.0017154062 -0.0077814264 -0.008531608 -0.008045968
-0.004795704 -0.004862994 0.0053967554 0.0074410317 0.008232027 -0.0055869715 0.007733887 0.006521905
-0.004875344 -0.0061937077 0.02332071 -0.005002291 -0.00561804 -0.005383185 0.002063196 -0.00496854
0.00030621095 -0.004979345 -0.0056235427 -0.0052935407 -0.0052308706 -0.0053132693 0.0055939415 0.0075733215
0.008555621 -0.0060006185 0.009129983 0.007069383 -0.0053085107 -0.0065919515 0.025304377 -0.0054369215
-0.0060472796 -0.005854184 0.003145137 -0.005382167 -0.00031442224 -0.0054148184 -0.006055627 -0.0057128426
-0.006014811 -0.0061215395 0.005912648 0.0074529764 0.008939173 -0.0067552696 0.012416871 0.008086009
-0.0060911346 -0.0073382035 0.029457267 -0.0062243585 -0.006831958 -0.0066729663 0.0042305565 -0.006120166
-0.0012270723 -0.0062042675 -0.0068538897 -0.006467336 -0.0065800473 -0.006701101 0.006381724 0.007998122
0.009672432 -0.007351615 0.013680231 0.008780358 -0.006658324 -0.007966739 0.032065455 -0.006801133
-0.007437047 -0.007299484 0.0046885796 -0.0066867424 -0.0013367853 -0.006779752 -0.0074664373 -0.0070514833
-0.0047728755 -0.004856169 0.0052500796 0.007210096 0.008061664 -0.0055430736 0.007922418 0.006402204
-0.0048543066 -0.006143661 0.023311317 -0.0049856864 -0.0055956366 -0.00540316 0.0020751907 -0.004931802
0.00057441957 -0.004960132 -0.0056055905 -0.0052614165 -0.0075360816 -0.0076890164 0.006738074 0.007949411
0.010296031 -0.008326404 0.017273495 0.009821402 -0.0076233363 -0.00897711 0.03712917 -0.007782877
-0.008452324 -0.00830617 0.005847213 -0.007606335 -0.001598776 -0.007762071 -0.008495485 -0.0080125015
-0.0054205433 -0.0055177277 0.0056720083 0.0074030627 0.008565845 -0.0061820513 0.010264198 0.0073208427
-0.005499701 -0.0067817317 0.026569067 -0.005633821 -0.006246451 -0.0060754716 0.002893098 -0.005557058
-0.0003393782 -0.0056098914 -0.0062635024 -0.005896207 -0.00442434 -0.004487361 0.0050962204 0.0070999027
0.0076954607 -0.005149115 0.0068897028 0.006151094 -0.004495482 -0.0056982096 0.021482684 -0.004608806
-0.005172194 -0.0049951226 0.0022264298 -0.0045876503 -0.00025386683 -0.004587815 -0.0051771803 -0.0048805587
-0.004188378 -0.004239335 0.0052711964 0.007583403 0.00793552 -0.0050048027 0.005391052 0.0058742296
-0.0042660288 -0.0056292284 0.02038475 -0.0043907445 -0.005019148 -0.004782904 0.00051736925 -0.00438865
0.0010170317 -0.0043644113 -0.0050257724 -0.0047045737 -0.0045753503 -0.004635591 0.005296531 0.007413567
0.008074503 -0.005368206 0.006949843 0.0062607056 -0.0046542315 -0.005973704 0.02222592 -0.004778679
-0.005392556 -0.0051519116 0.0017152817 -0.0047563426 0.0004886404 -0.004755248 -0.0053989426 -0.00507545
-0.0060421154 -0.0061503444 0.0057962597 0.00732774 0.008870328 -0.0067681847 0.012534771 0.008031676
-0.006116578 -0.0073438827 0.029548734 -0.006249207 -0.0068507427 -0.006702544 0.004550488 -0.0061351703

loss.picnn.flows.0.icnn.Wczs.0.bias f4 [20]
00000000: 9540 c43b 5adb d33b 14f0 ae3b bcbe b03b
00000010: 0728 b63b e725 c23b 3ec6 aa3b e849 d03b
00000020: 820d b23b 35b1 9f3b ead5 ab3b 9c5f ac3b
00000030: dd37 b43b ce62 c23b 9918 c73b c6dd cf3b
00000040: a280 c83b d89c ba3b 73ad bf3b 68ed c23b
0.005989144 0.0064653577 0.005338678 0.005393831 0.005558971 0.0059249285 0.0052116206 0.0063564666
0.005433739 0.0048734196 0.0052440064 0.005260421 0.0054998235 0.0059321886 0.0060759303 0.006343576
0.00611885 0.0056949668 0.005849534 0.005948711

loss.picnn.flows.0.icnn.Wczs.1.weight f4 [20, 20]
00000000: 4a34 ebbc be5c edbc 9579 fa3c 7079 133d
00000010: 7fec 243d 705e 00bd 827e 653d bc8c 2a3d
00000020: 9a52 ecbc b3a1 08bd bcbb de3d c248 efbc
00000030: e115 01bd c750 ffbc f03d ae3c a8f1 ecbc
00000040: d317 97bc 92d3 eebc c054 02bd 76bd f6bc
00000050: 4cd1 17bc 7e8f 20bc ad52 803c 7eaf b23c
00000060: 546f a03c b437 33bc 0ad4 173c 69df 773c
00000070: 42d3 1bbc 3689 45bc d226 243d 74e4 21bc
00000080: b29f 37bc ebf8 42bc 8405 d437 72b7 23bc
00000090: 9f52 cdbb 5543 1fbc 2a9c 3fbc 1a4c 2ebc
000000a0: 144f 60bc 62cf 67bc 9260 a13c e081 c33c
000000b0: bfd5 c03c 12ac 7abc e633 c13c 5581 b93c
000000c0: 7085 63bc 8261 86bc a031 683d 0008 69bc
000000d0: 6477 7cbc 9c48 81bc b65b 9b3b 9443 6bbc
000000e0: 805a 83bc 10fb 66bc a886 7cbc 0c40 75bc
000000f0: a638 20bb 6ad5 f7ba e944 073c 8cb4 843c
00000100: e45a 4b3c b574 b0bb e19c 37bc eea8 b63b
00000110: 8832 2bbb 6101 f2bb 16f0 8a3c 76e7 35bb
00000120: 1afe a9bb b249 3fbb e640 1ebc c3a7 48bb
00000130: 0f65 233c caeb 35bb 7c39 d9bb d6b7 83bb
00000140: 8cb6 6dbc 1a37 77bc c89e 983c d605 bd3c
00000150: b26d c13c db4d 84bc 4e05 cb3c c42f b13c
00000160: 2a45 71bc 9858 8ebc 958e 6f3d 2098 77bc
00000170: 3015 87bc 4814 8dbc 1fa1 c03b b4f5 75bc
00000180: e3c6 29bc 353a 75bc 0518 8bbc fb0b 81bc
00000190: f4eb 28bc 6e31 28bc 9906 2f3c 16d8 693c
000001a0: 2031 813c eeb0 46bc d2ce 9d3c dcf6 723c
000001b0: 3f8c 2bbc a0d0 59bc 0efe 453d b27f 2ebc
000001c0: 7024 48bc 7fd9 36bc f5eb 263c 7e95 2cbc
000001d0: 866b b6bb 388f 2ebc 89c5 54bc a458 39bc
000001e0: 1a12 3cbc a4d3 39bc 4125 5f3c 6ac7 963c
000001f0: b8a4 9d3c d91e 59bc a475 863c 249b 8b3c
00000200: 2283 3cbc fa3d 72bc 48d1 3f3d 9e4e 3fbc
00000210: 3f09 58bc 284c 49bc 1492 223b 29e0 3ebc
00000220: 182a 923a 473c 3fbc 23db 57bc 7a36 4abc
00000230: 03ca 8ebc 2253 8fbc f619 9d3c b041 cd3c
00000240: 40a1 da3c a1a0 9fbc d42d e43c 589c cc3c
00000250: c229 8fbc c206 aebc eedb 8c3d 5b4d 91bc
00000260: 0097 a0bc 26cd 9dbc 7217 bb3b 1c28 8fbc
00000270: 9c43 483a 620a 91bc 2b59 a1bc f4c9 96bc
00000280: 3832 afbc c01d b0bc a466 a43c 0411 cc3c
00000290: 0100 ea3c 882f c1bc bf86 2b3d 5438 f13c
000002a0: c6ee afbc 1b66 cfbc 5e04 b23d 431a b2bc
000002b0: 3e5d c3bc 6807 c3bc 45db 873c 0ad1 adbc
000002c0: 5633 a2bb 4b0a b2bc 634e c6bc 9810 b7bc
000002d0: e17e 93bb 809a 90bb 46b6 0b3c 132b 433c
000002e0: 9b66 303c 32f6 b8bb fefa 1f3b 76c1 083c
000002f0: 2022 95bb b834 d6bb 2856 9b3c ee0d 99bb
00000300: b239 b1bb 7ecc 9dbb b2ce 91bb 24dd 9dbb
00000310: 2867 24b9 3cda 98bb 3322 92bb 2fee a8bb
00000320: aa01 b9b9 59a0 1fba 0ce5 2e3c 086a 8a3c
00000330: c19f 293c 1e70 9aba 7d7f 38bc e358 ca3b
00000340: 24be d4b9 664f e6ba 3393 283c 5a97 12ba
00000350: fabf 89ba 323c 11bb e168 4dbc cb7e 8dba
00000360: e219 7cbb 9d10 d9b9 e864 66ba e73c 96ba
00000370: 5b01 00bd f2b9 00bd 31b6 fa3c 9245 0d3d
00000380: 5ba4 2a3d 8a81 0dbd 8e75 8b3d 8684 363d
00000390: b01b 01bd 7aa1 16bd c875 fd3d d4de 02bd
000003a0: a252 0ebd 60db 06bd bed9 ff3c e486 01bd
000003b0: 2c9f d9bc 82e5 02bd aee3 12bd ea96 07bd
000003c0: 3c53 a9bc c673 aebc cfd3 ad3c 5450 bf3c
000003d0: ae5f e13c 6250 b5bc ace1 3a3d d259 f03c
000003e0: babd aabc 0f8d bebc 115d ab3d 6cc0 adbc
000003f0: 12d2 b8bc 66a0 bebc 26ba 843c 3488 aabc
-0.028711457 -0.028974887 0.030575553 0.036004484 0.040264603 -0.031340063 0.05602885 0.04163812
-0.028847981 -0.033357333 0.10875651 -0.029209498 -0.031515006 -0.031166447 0.021269768 -0.028923824
-0.018443977 -0.029153619 -0.031819105 -0.030119639 -0.009266209 -0.009799836 0.015664423 0.021812197
0.019584335 -0.010938574 0.009266863 0.015128949 -0.009510817 -0.012056639 0.040076084 -0.009881128
-0.011207508 -0.011900167 2.5274938e-05 -0.009992467 -0.0062659527 -0.009720643 -0.011694947 -0.010638261
-0.013690729 -0.014148565 0.019699369 0.02386564 0.023539422 -0.015299814 0.023584317 0.022644678
-0.013886794 -0.016403917 0.05668795 -0.014223099 -0.015409324 -0.015781693 0.0047411574 -0.014359374
-0.016034365 -0.014097944 -0.015412964 -0.014968883 -0.0024447828 -0.0018908207 0.008256176 0.016199373
0.012411807 -0.0053850063 -0.011206836 0.005574337 -0.0026122648 -0.0073854183 0.016960185 -0.002775637
-0.005187762 -0.0029188213 -0.009659028 -0.0030617572 0.009972825 -0.002775895 -0.006629167 -0.0040197177
-0.014508855 -0.015088821 0.0186304 0.023074072 0.023611877 -0.016150406 0.024782803 0.021629222
-0.014725963 -0.01737623 0.058485586 -0.015111953 -0.016489595 -0.017221585 0.005878582 -0.0150121935
-0.01036236 -0.014967491 -0.016979227 -0.015752783 -0.010310162 -0.010265691 0.010682725 0.01427271
0.015770495 -0.012127144 0.019263659 0.014829364 -0.010470449 -0.013294369 0.04833799 -0.010650562
-0.012215719 -0.011160254 0.0101880925 -0.010533689 -0.005567017 -0.010654263 -0.012986549 -0.0113126375
-0.011478925 -0.011341963 0.013619722 0.018405635 0.019243583 -0.013251984 0.016413517 0.01704175
-0.011505874 -0.014785284 0.046830446 -0.011676459 -0.013185798 -0.0122862235 0.0024806308 -0.011650124
0.0011151461 -0.011672086 -0.013174805 -0.01234209 -0.017430311 -0.017495696 0.019177418 0.025055736
0.026688218 -0.019485774 0.027853884 0.024976894 -0.017475966 -0.021243457 0.06877886 -0.017737081
-0.019603252 -0.019262861 0.005709582 -0.01747518 0.0007639469 -0.017705146 -0.019695839 -0.018406846
-0.02138625 -0.02149856 0.020068474 0.024910457 0.028564455 -0.023582235 0.04187655 0.029445805
-0.02147616 -0.025317242 0.08692239 -0.021741038 -0.023848172 -0.023807243 0.016584048 -0.021217842
-0.0049499674 -0.021733424 -0.0242073 -0.02234678 -0.004501209 -0.004412949 0.008527344 0.011912125
0.010766651 -0.005644583 0.0024411078 0.008346906 -0.004551187 -0.0065370463 0.018961981 -0.00467085
-0.005408489 -0.004815637 -0.004449689 -0.004817622 -0.00015678687 -0.0046646874 -0.0044596433 -0.005155347
-0.0003528719 -0.00060892623 0.010674726 0.016896263 0.01035303 -0.0011782681 -0.011260864 0.006175147
-0.00040577457 -0.001757127 0.010289001 -0.0005592011 -0.0010509484 -0.0022161123 -0.012537212 -0.0010795234
-0.0038467576 -0.00041401843 -0.000878884 -0.0011462242 -0.031251293 -0.03142733 0.030604454 0.034490176
0.041660648 -0.034547366 0.06809531 0.044559978 -0.031520545 -0.03677509 0.123759806 -0.031950787
-0.034746774 -0.032924056 0.031231757 -0.031622782 -0.026565157 -0.031957157 -0.035861664 -0.033102907
-0.020669572 -0.02129544 0.021219162 0.023353733 0.027511444 -0.022133056 0.045625374 0.029339705
-0.020842422 -0.023260621 0.083673604 -0.021209918 -0.022561107 -0.023269843 0.016202044 -0.0208169

loss.picnn.flows.0.icnn.Wczs.1.bias f4 [20]
00000000: 744d c73c 3c35 2a3c da5f 523c c23a 493c
00000010: 730d 513c 8e21 333c 8cfa 5e3c 56b7 8e3c
00000020: d68f 933c 7098 0b3c 9e49 7b3b 1350 da3c
00000030: e300 733c bf29 573c cf30 013c e45d 633c
00000040: 4e0f 733c 665c 973c 328a 3a3c 5fda db3b
0.024328925 0.010388669 0.012840236 0.012282075 0.012759554 0.010933293 0.01360954 0.017421406
0.018012922 0.008520231 0.003834344 0.02664951 0.014831754 0.013132512 0.007885172 0.013877366
0.014835192 0.018476676 0.011385487 0.0067093815

loss.picnn.flows.0.icnn.Wcxs.0.weight f4 [4, 20]
00000000: 78b0 40bd 2459 42bd 5486 733d d4a4 a03d
00000010: 7699 9d3d 261a 5ebd fab6 4f3d ac53 823d
00000020: 285d 43bd 4e7e 72bd 8626 003e aa98 47bd
00000030: 5ab5 5ebd 1a95 57bd 3913 f93b 52dd 47bd
00000040: 8c80 123c e480 46bd 90eb 5dbd f33e 53bd
00000050: 7a1e 5fbd 083d 62bd ec6b 7b3d 7874 9f3d
00000060: d1a0 a53d 2212 79bd 1214 9b3d c9cc 933d
00000070: 49a9 61bd b1ca 85bd a752 183e aed9 65bd
00000080: 663d 7abd 0c24 78bd 387d f43c 00d3 64bd
00000090: ce5c d5bb edfb 64bd 3898 76bd c284 6fbd
000000a0: b2e0 44bd 4867 45bd 8678 5a3d babf 923d
000000b0: 83f3 963d 4ac8 61bd 8f81 803d c7fb 813d
000000c0: cc61 47bd 8349 75bd 382d 0a3e 1837 4bbd
000000d0: 8eb9 62bd d2e9 55bd a451 053d 6d87 4abd
000000e0: 80e4 8f38 3acd 4abd 5293 66bd c146 56bd
000000f0: ea77 5cbd a288 5fbd 2d4d 863d 50c2 a93d
00000100: 4e90 ab3d 7ceb 7bbd f205 893d 122c 913d
00000110: 6299 5fbd 3676 89bd b4ba 0f3e 62e3 64bd
00000120: 961b 7ebd 8294 77bd e633 bf39 45bc 63bd
00000130: 3803 803c 5e8e 63bd 3fa1 7ebd a4ad 70bd
-0.047043294 -0.047448292 0.059454277 0.078439385 0.07695286 -0.054224156 0.05071161 0.063636154
-0.047696263 -0.059202485 0.12514696 -0.048729576 -0.05437217 -0.05263243 0.0076011685 -0.048795052
0.008941781 -0.048462763 -0.054179728 -0.051573705 -0.054472424 -0.055233985 0.06138222 0.077858865
0.08087314 -0.06080831 0.075721875 0.07216794 -0.055093084 -0.06532801 0.1487528 -0.0561158
-0.06109371 -0.060581252 0.029844865 -0.055865288 -0.0065113073 -0.055904318 -0.06020376 -0.058476217
-0.04806585 -0.0481942 0.053337596 0.07165475 0.07370665 -0.05512265 0.06274711 0.06346851
-0.04867725 -0.05988456 0.13493812 -0.04961309 -0.05535274 -0.05222494 0.03254856 -0.04944556
6.861333e-05 -0.049512126 -0.05629284 -0.05231357 -0.053825296 -0.054573663 0.06557689 0.08289015
0.08377133 -0.061503872 0.06690587 0.07088484 -0.054589637 -0.06712 0.14036065 -0.05588091
-0.062038027 -0.060444362 0.00036469026 -0.05559947 0.015626535 -0.055555694 -0.062165495 -0.058759347

loss.picnn.flows.0.icnn.Wcxs.0.bias f4 [4]
00000000: d0da 613d f861 613d 9419 583d 2e60 7d3d
0.055140316 0.05502507 0.05275877 0.061859302

loss.picnn.flows.0.icnn.Wcxs.1.weight f4 [4, 20]
00000000: 9340 d6bb 1e4f f4bb bedc c03b 325f b43b
00000010: 5c7d fd3b 6efe cebb acbe 953c 6828 0d3c
00000020: b655 ddbb de95 c6bb 9247 de3c 31b5 e6bb
00000030: 9c3f e0bb 6a10 10bc cc42 673c 7866 e4bb
00000040: 53a9 97bc a4d4 e2bb c07f ecbb b06d e6bb
00000050: fe68 5a3c 9e68 1c3c f074 5cbc 8b49 e6bc
00000060: 0ce7 f5bc 2076 ee3c 732a ab3b 5660 03bc
00000070: 22b7 7c3c 603c 1b3d 2cc7 0ebd 3733 883c
00000080: eab8 e63c 745b 853b 622e 63bb c6d5 853c
00000090: fcf3 85bd 883f 8b3c 5674 063d 4425 b93c
000000a0: bbe3 9bba 70db 88bb bc56 09bc 2496 6bbc
000000b0: f61d 6fbc 4cdd 1d3c d7d9 8d3c 24b5 3c39
000000c0: e0c1 d339 280b 7d3c d4e7 3ebb b3ab 9f3a
000000d0: cc04 033c 5274 82bc e233 dd3c 0eb5 f03a
000000e0: c84c 1ebd 3a74 c83a 5b04 003c eb3e bb3b
000000f0: c2c8 ae3c 4303 9b3c fa77 6dbc c2b2 e4bc
00000100: 8fc9 08bd 6bf1 f73c a3d9 27bc 9780 7bbc
00000110: 326d b53c 276d 133d 8405 58bd de97 ba3c
00000120: 5efe f13c a9b2 8d3c 9c4c 1d3c f68c b63c
00000130: fc30 8fbd 20eb bc3c 047b f93c ca40 d43c
-0.0065384596 -0.0074557206 0.0058856895 0.005504512 0.0077358913 -0.0063169515 0.018279396 0.008615591
-0.0067546023 -0.006060346 0.027133737 -0.0070406427 -0.0068435203 -0.008792976 0.014115047 -0.006970223
-0.018513357 -0.0069223214 -0.0072173774 -0.0070321187 0.013330696 0.009546427 -0.013455614 -0.02811124
-0.030017398 0.02910906 0.005223566 -0.008018574 0.015424522 0.037899375 -0.034857914 0.016625984
0.028164346 0.00406974 -0.0034665097 0.016337287 -0.06540677 0.016998067 0.03282579 0.022600777
-0.001189343 -0.0041765496 -0.0083824955 -0.014379058 -0.014594546 0.009635281 0.017315788 0.00017996557
0.00040389504 0.015444554 -0.002912988 0.0012181908 0.007996749 -0.015924606 0.027002279 0.0018364505
-0.038647443 0.0015293427 0.007813538 0.0057142875 0.021335963 0.018922454 -0.014493937 -0.02791727
-0.033395346 0.030266484 -0.01024476 -0.015350482 0.022146795 0.035992768 -0.052739635 0.022777494
0.029540237 0.017297106 0.009600785 0.022284012 -0.06991765 0.023061335 0.030454166 0.0259098

loss.picnn.flows.0.icnn.Wcxs.1.bias f4 [4]
00000000: 2246 9cb9 0ccd 51bd 7658 16bd 249f 2fbd
-0.00029806892 -0.05122094 -0.036705457 -0.042876378

loss.picnn.flows.0.icnn.Wccs.0.weight f4 [20, 20]
00000000: f6c9 173e 53fc b9bd 49c3 51be a037 dabd
00000010: 10a9 d1bd a2b2 013e e387 16be 173b 74bc
00000020: 2b09 43bd 36c1 0abe 968a cc3d 14f1 bebd
00000030: f64b 37bc 5f88 1fbe 3231 f3bc 4d10 003d
00000040: 7aba 9cbc 6a4f abbd c44d 8b3d 030e 6ebd
00000050: 5e8a 06be 8006 31be f8d3 33bd 0e1b 58be
00000060: 5e84 423e 182e e9bd be0c 85bd bc8a f23c
00000070: d6af 4e3d 332e e4bc 1c42 3e3e 1a51 0dbe
00000080: daba 943d 97a8 11bc 1e46 2abe d21a c0bd
00000090: ea4b 393d 53c8 0f3d 4264 1e3e 7ea6 113e
000000a0: 9a1e 10be 0d21 ecbd 4766 ecbc e0c7 0dbe
000000b0: de16 09bd 96c1 4fbe 9e35 fd3d 752f 3a3e
000000c0: 538c aeba c285 39be 2c88 bdbd ec62 dabd
000000d0: 84e6 363d cdeb 85bc 35c3 5a3d 0f0f 443e
000000e0: bcb5 c63d c8ca ea3c e89d 85bd 22cf af3d
000000f0: 8c16 aa3d c678 4cbe 80b8 05be 437e 253c
00000100: 1348 b03d 2c46 e03d 544c 0fbe 9e38 63be
00000110: effa 29bc a09e cebc ec73 693d 9a84 76bd
00000120: 523a 303e b205 8f3c 475c 203e 7634 1ebe
00000130: 9060 bd3d 5860 e43c 6aa1 dfbd f24c e53d
00000140: a90a 65be 3be9 343e baf0 a13c a2e8 b43c
00000150: 4002 d93d 6ece 763c ec0c e03d 93cd 153e
00000160: 1e8b 36be 19fc 133e 66d6 83bc 00ed 64bd
00000170: 4e87 283d 1241 2e3e 180a e4bd e410 1ebe
00000180: 4853 063e 87ed debd 2eae 8a3d 586f 16bd
00000190: 9d17 683d 16bf 293e 2e94 dbbd bcda cabd
000001a0: d88f f43d 8ef3 c83b 9ce7 9ebc 1624 42be
000001b0: 67e0 3c3e 38db 7cbc a0be 93bc 8c8a c6bd
000001c0: 989d 4dbd b583 d33d 0ede 22bb d286 3e3e
000001d0: 2c8f 48bc 3b79 18bd 4609 f63d d600 3bbc
000001e0: 6248 2abd 9bc0 9f3d 1687 2e3e 93eb 373d
000001f0: c869 163e 5676 183e c6c7 873d c606 953d
00000200: a636 9a3d f2d8 e43c ccc8 323e 25c2 563e
00000210: 9586 ab3d d240 cabb 08ba 4b3e c7b8 2ebe
00000220: 6cfd 283e 6c3c f93d bc05 183e 6449 5cbc
00000230: 28af 25be beb1 283e 4028 d4bd 9d05 4d3d
00000240: 7f78 f03d 5acd 4fbe f31e 023c b3f8 afbd
00000250: fdcf 273e eedb 0abe 89bf e13d 7847 143e
00000260: c4ae 043e 1c5e 623e 87f2 f93c d712 4abe
00000270: ec2a 243e 222e d33c 2638 383c b839 54be
00000280: 10fb 3bbd c6d5 d4bd 93a7 593e 71c9 1a3e
00000290: e627 223e 60bf 213e 261c 16be d05f d3bd
000002a0: ce1c aabd 02f1 acbd 5a24 1c3e 48fe a43d
000002b0: c972 3c3e d5ba adbb 2e98 4fbe 836c 76bd
000002c0: a487 293e 580b 103e 6644 973d 6cd7 78bd
000002d0: 83e5 50be 9e57 ebbd f020 e63d 14f3 bebd
000002e0: 6eba d13d 5456 853d 4c62 cdbd 48bf 043e
000002f0: 1086 89bd 83ec 6fbb 69d5 d8bd 3a4c 54be
00000300: d6a2 253d 864c 903d 764a f3bd b92d 113e
00000310: 1830 45be b2e5 57be 1a3d 09be 840c 95bd
00000320: 1aed 0dbd ac1c 5cbd 1eed e73d 5e48 3abe
00000330: 0820 463d 96b3 c8bb 50be 9a3d 840f 713e
00000340: 52d1 023e b66b 09be 4a79 12be 1ea3 83bd
00000350: 23bc fabd 247e 863d 0616 e83b b9d5 2d3e
00000360: fe46 a93d e563 51bd 3b4f 23bb ff81 313d
00000370: bae9 0fbd 3ae5 303e b241 25be f56e fb3d
00000380: bc2e 03be d45e 51be bbb6 f4bc 3229 fc3d
00000390: 1cf5 193e a085 3f3d 276a 0a3c b09d a7bc
000003a0: 9a9f cabd 8acc d8bc 4e95 46bc a678 3a3e
000003b0: 4c4f e33d 7852 3fbe 7fec b5bb 4a92 15be
000003c0: 78d0 08bd 0ef8 33be 8629 6a3d 89a8 28be
000003d0: 1a5b 5d3e a2fd 2f3e 0460 1dbe 887d 58be
000003e0: 465e 323c b238 70bd 90e7 5f3d 05b0 18be
000003f0: 42a1 c13d 8849 43be d4c6 efbd 264c ecbd
0.14823136 -0.0908133 -0.20484652 -0.10655141 -0.10237324 0.126658 -0.14700274 -0.014906666
-0.047616165 -0.13550267 0.09987371 -0.09323326 -0.011187544 -0.15579365 -0.029686544 0.031265546
-0.019131888 -0.083647564 0.06801942 -0.05811883 -0.1313872 -0.17287636 -0.04390332 -0.2110407
0.18995807 -0.11385745 -0.06496571 0.02960717 0.05046066 -0.02785406 0.18579906 -0.13800469
0.072622016 -0.008890293 -0.1662831 -0.093801156 0.045238413 0.035103153 0.15467933 0.14223668
-0.14074174 -0.115297414 -0.028857363 -0.13845778 -0.033469073 -0.20288691 0.12363742 0.18182166
-0.0013316966 -0.18117431 -0.09254488 -0.10663399 0.04465343 -0.01634779 0.05340882 0.1914637
0.09702632 0.028661147 -0.06524259 0.08584429 0.08305082 -0.19967946 -0.13058662 0.010100904
0.08607497 0.10950884 -0.1399396 -0.22189566 -0.010374769 -0.025222123 0.056995317 -0.060185052
0.17209747 0.01745877 0.15660201 -0.154497 0.092469335 0.027877972 -0.10919459 0.11196317
-0.22367348 0.17667095 0.019768108 0.022083584 0.10596132 0.015063865 0.10939965 0.14629202
-0.17826506 0.14451636 -0.016093444 -0.055890083 0.04114466 0.1701701 -0.11134738 -0.15436131
0.13117707 -0.108851485 0.067715034 -0.03672728 0.056663144 0.165768 -0.107216224 -0.099050015
0.119414985 0.0061325496 -0.01939755 -0.18959078 0.18444978 -0.015433125 -0.018035233 -0.096943945
-0.05019912 0.103278555 -0.0024851593 0.18606117 -0.012241166 -0.03722499 0.120134875 -0.0114137735
-0.041572936 0.078004085 0.17043719 0.044902395 0.1468879 0.14888892 0.06629901 0.072766826
0.075299546 0.027935479 0.1745941 0.20972498 0.08375279 -0.006172278 0.19895184 -0.17062674
0.16502923 0.12169728 0.14845937 -0.013445232 -0.16180098 0.16474053 -0.103592396 0.05005418
0.11741733 -0.20293179 0.007941949 -0.085923575 0.16387935 -0.13560459 0.110228606 0.14480388
0.12957293 0.22106212 0.030511154 -0.1973375 0.16031998 0.025778834 0.011243856 -0.20725143
-0.04589373 -0.103923365 0.2125533 0.15115906 0.15835533 0.1579566 -0.14659175 -0.10321009
-0.08306275 -0.08444406 0.15248242 0.08056313 0.18403162 -0.005301813 -0.20272896 -0.06016208
0.16555649 0.14066827 0.07386093 -0.060752317 -0.20400052 -0.11491321 0.11236751 -0.09323707
0.10240637 0.065106064 -0.10028514 0.12963593 -0.067150235 -0.0036609478 -0.1058758 -0.20732203
0.040438496 0.07045846 -0.11879437 0.14177598 -0.19256628 -0.21083716 -0.13402215 -0.07277778
-0.034649946 -0.05373828 0.113245234 -0.18191668 0.04837039 -0.006124924 0.075558305 0.23541075
0.12775162 -0.13419995 -0.1430408 -0.064275965 -0.122429155 0.06567028 0.0070827035 0.1697606
0.08265494 -0.051120657 -0.0024919051 0.043336865 -0.03513501 0.17274943 -0.16138342 0.12277023
-0.12810796 -0.2044633 -0.029872289 0.12312545 0.15034908 0.046758294 0.00844816 -0.020460933
-0.09893723 -0.02646472 -0.012120558 0.18210086 0.11099109 -0.18683803 -0.005551874 -0.14606586
-0.033401936 -0.17575094 0.057168506 -0.16470541 0.21616784 0.17186597 -0.15368658 -0.21141636
0.010886734 -0.05864782 0.054664195 -0.14910896 0.094545856 -0.19071019 -0.11707845 -0.11537962

loss.picnn.flows.0.icnn.Wccs.0.bias f4 [20]
00000000: 1fc3 ffbd 6ca8 44be 05a1 48be df7c 14be
00000010: a0be 3b3e 5606 073e 9a86 bcbd fa47 1ebe
00000020: f4de 33be e2b4 06be 1af8 b2bd 7df5 153e
00000030: d4c7 8c3d 866a afbd cb6e 213e b28c 0bbe
00000040: a8db 3abe f9b0 743d a159 f2bd a081 843d
-0.12488388 -0.19204873 -0.19592674 -0.1450076 0.18334436 0.1318601 -0.09205361 -0.15457144
-0.17565519 -0.13154939 -0.08738728 0.14644428 0.06874052 -0.085652396 0.1576492 -0.1362789
-0.18247855 0.059739087 -0.118335016 0.064700365

loss.picnn.flows.0.icnn.actnorm0.b f4 [1, 20, 1]
00000000: 8848 883e 3616 ae3e 80ee 84be 1cb7 563e
00000010: a4f7 97be 9319 e83d 48d9 95be c154 c73e
00000020: 343d 843e 3af3 13be 4b77 d9bd 9c18 043e
00000030: ac25 98be 1ce0 aebe c03c bc3e 1832 873e
00000040: fe89 e8be b2a6 263e ae86 393e 7009 f63e
0.26617837 0.3400132 -0.2596321 0.20968288 -0.29681122 0.11333003 -0.29267335 0.3893185
0.25827944 -0.14448252 -0.106184565 0.12900013 -0.2971624 -0.34155357 0.367651 0.26405406
-0.4541778 0.16274527 0.18117782 0.48054075

loss.picnn.flows.0.icnn.actnorm0.logs f4 [1, 20, 1]
00000000: 0028 9f3e 429a 653f 3498 a13e a6a2 4c3f
00000010: 876b 3f3f 9742 4b3f 7816 133f 88bb 6e3e
00000020: 9eda 233f 4ebd 513f 1e7a 223f 48e1 3e3f
00000030: e4c6 d33e d6a6 fa3e 8c11 193f 144b 633f
00000040: a4f8 1c3f 2c73 e73e e61f ee3d 5f34 053f
0.31085205 0.89688504 0.31561434 0.7993568 0.7477345 0.79398483 0.5745616 0.23313725
0.6400546 0.8192948 0.63467586 0.745625 0.4136268 0.4895541 0.597924 0.88786435
0.61316895 0.45205057 0.11627178 0.52033037

loss.picnn.flows.0.icnn.actnorms.0.b f4 [1, 20, 1]
00000000: 52cf 913d 4020 a9bd 6060 a93e 8bb1 ea3d
00000010: 0818 1dbf 2c30 37be 665e f2be f6e2 e7be
00000020: 74f1 453e 30f5 64be a767 223d 562a 41be
00000030: d92d edbe 7297 21bf 0436 7cbe 80b1 333e
00000040: 349e b53e d25a d3bd 44d0 883c 8cc1 f7bd
0.07119621 -0.08258104 0.3308134 0.11459645 -0.61364794 -0.1788947 -0.47337645 -0.45290345
0.19330388 -0.22359157 0.03964963 -0.18863806 -0.4632404 -0.6312171 -0.2462998 0.1754818
0.35472262 -0.10320057 0.016700871 -0.12097463

loss.picnn.flows.0.icnn.actnorms.0.logs f4 [1, 20, 1]
00000000: 12c3 863f ef68 423e 816c 203f 6272 e13e
00000010: 7e3a 673e 1eed c7bb d4fb a03e aec0 d03d
00000020: 5e9d c03e 0633 d63d de9e a83e 54e7 7f3f
00000030: 2a83 d73e aa94 943e 029f b73e 58e5 9c3d
00000040: 9823 0b3f 843e 943e ecff 2c3e fb6a a63e
1.0528281 0.18985341 0.62665564 0.4403258 0.22580907 -0.0061012646 0.3144213 0.10193001
0.37620062 0.10458951 0.32933706 0.99962354 0.42092258 0.29019672 0.358635 0.07660931
0.54351187 0.28953946 0.16894501 0.32503495

loss.picnn.flows.0.icnn.actnormc.b f4 [1, 20, 1]
00000000: b0f5 d53e 40de b8be e87c ba3c c05c 993c
00000010: 3400 3abe 6e61 09bd fb14 c2bd 03ea 05bf
00000020: 7af1 183d 8043 76be 9677 843c 483d dbbd
00000030: 4b23 8f3d 08d6 0fbf ae89 9abd fc61 a8be
00000040: 4bc2 6e3d 5690 073f 5e70 f3be aceb 3cbf
0.41789007 -0.36107063 0.022764638 0.018720984 -0.1816414 -0.03354018 -0.09476658 -0.523102
0.037339665 -0.24049187 0.016170304 -0.10705048 0.069891535 -0.5618596 -0.075457916 -0.32887256
0.05829076 0.52954614 -0.47546667 -0.73797107

loss.picnn.flows.0.icnn.actnormc.logs f4 [1, 20, 1]
00000000: 2c27 9b3f 8e4c cc3f 0099 983f c0b2 b93f
00000010: cec5 fb3f b8b0 f23f 6ae4 0e40 1578 ac3f
00000020: 4ad4 bf3f e537 5240 82de 2840 4e7c 9a3f
00000030: 4345 1740 4a51 3940 0bd1 2e40 aaa1 c73f
00000040: 7228 5e40 d4dc 813f d543 3140 44b1 b03f
1.2121329 1.5960863 1.1921692 1.4507675 1.966974 1.896018 2.2326913 1.3474146
1.498666 3.2846615 2.6385808 1.2069185 2.3636024 2.8955865 2.731509 1.5596211
3.4712186 1.0145516 2.7697651 1.3804097

loss.picnn.flows.0.picnn.Wzs.0.weight f4 [20, 4]
00000000: e6d6 c33e ea10 d73e f2bd 02be 5cf7 ed3e
00000010: f8c7 f8bd a442 e43d 18b0 86be 1806 a13e
00000020: 721a e53e caf7 c0be 2881 e23e ce04 b73d
00000030: 131c c43e 985c 7f3d 2bd7 7c3e 566b adbd
00000040: e290 cc3e a473 9b3d aa7d 80be 082e 043e
00000050: 9e24 7abe 248e 62bd 9a21 5bbe c663 b43e
00000060: 1e9a cbbe 4c4f 6dbe 3e05 0abe fe05 9bbe
00000070: c7b4 523d 6e83 00bf 7236 ed3e 4788 ddbe
00000080: c292 c93e aa1f ac3d 2950 35be 5272 a13e
00000090: becd 9f3d 7225 d63e f24a 4e3d 6640 2cbe
000000a0: a6f9 043e 5c3e 13be aaeb 583e f856 ea3e
000000b0: 0bcc 983e 46df 6ebe aa97 993e 05cc ab3d
000000c0: 2e7e 883e ebae 9dbe b085 00bf 127f 48be
000000d0: 3071 ccbe 02d6 d63e acd9 123e d4bb 5b3e
000000e0: cc35 293e aa59 6abc e4e5 cf3e 4220 bebe
000000f0: 5e96 283d 8d77 b7be 1c55 313e 2237 3cbe
00000100: 0ce3 233e 7ea2 e6bd 0c9b dc3e 853d 9fbe
00000110: 1861 9dbe 26df 9cbe 244c ed3e 3125 2e3e
00000120: 9a00 fc3e ed06 d5be 6e82 ffbe 8cc0 cabe
00000130: 183b b4be 7afd 533e 8a46 373e 1ba4 da3e
0.38249892 0.42005092 -0.12767771 0.46477783 -0.12147516 0.11145523 -0.26306224 0.31449962
0.4474674 -0.37689048 0.44239163 0.08936463 0.3830267 0.062344164 0.24691455 -0.08467738
0.39954287 0.07590416 -0.25095874 0.12908185 -0.24428031 -0.055311337 -0.21399537 0.3523237
-0.3976602 -0.2317478 -0.13478562 -0.3027801 0.051441934 -0.50200546 0.463306 -0.43268034
0.3936978 0.08404477 -0.1770636 0.31532532 0.07802914 0.41825444 0.050364442 -0.16821441
0.12985858 -0.14379257 0.21183649 0.45769477 0.29843172 -0.2332736 0.29998523 0.08388523
0.26658767 -0.30797514 -0.5020399 -0.19579723 -0.39930105 0.4196015 0.14340848 0.2145837
0.16524428 -0.014303604 0.4060508 -0.37133986 0.041159026 -0.35833398 0.17317623 -0.18380406
0.1600458 -0.11261462 0.4308704 -0.31101623 -0.3073814 -0.30639 0.46347153 0.17006375
0.4921921 -0.41606846 -0.49904197 -0.39600027 -0.35201335 0.20702162 0.17898002 0.42703328

loss.picnn.flows.0.picnn.Wzs.0.bias f4 [20]
00000000: a0b6 83be d2d2 adbe 2162 863e ba68 4fbe
00000010: f216 9c3e c6fe f4bd 6676 923e fbcc c7be
00000020: 0008 81be b85d 203e 92fe d03d 1afa 06be
00000030: 64cc 983e e28f ae3e aaf6 b9be 929c 8abe
00000040: 4a8c e93e 8894 30be d428 35be 7902 f8be
-0.2572527 -0.33949906 0.2624674 -0.20254794 0.30486256 -0.11962657 0.28605956 -0.39023575
-0.25201416 0.15660751 0.102048054 -0.13181344 0.29843438 0.3409415 -0.36321002 -0.2707258
0.45614845 -0.1724416 -0.17691356 -0.48439386
