src/model/lightning_logs/lightning_logs/version_4/checkpoints/epoch=43-step=2200.ckpt (torch, 451419 bytes, 257 tensors)

loss.picnn.flows.0.icnn.Wzs.0.weight f4 [20, 6]
0	0x3f0b8ead	0.5451458
1	0x3f14e2c6	0.5815853
2	0xbdd90d87	-0.10598283
3	0x3f5203d1	0.82037073
4	0xbee8c47d	-0.4546241
5	0x3d6df757	0.05809721
6	0xbf1ffe99	-0.6249786
7	0x3f0c243b	0.54742783
8	0x3f469392	0.77568924
9	0xbf75dae7	-0.96037143
10	0x3e8e0658	0.27739215
11	0x3eac8878	0.33697867
12	0x3f320cf4	0.69551015
13	0x3ee4744b	0.44619974
14	0x3ed7d8d1	0.42157605
15	0xbeb4ebf2	-0.35336262
16	0x3f1cc1bc	0.61233115
17	0x3e3ac0df	0.18237637
18	0xbf201d8b	-0.6254508
19	0x3f0f6ea2	0.5602819
20	0xbf312631	-0.691989
21	0xbea64a5e	-0.32478613
22	0xbe7f174b	-0.2491123
23	0x3f19f6ff	0.6014251
24	0xbe908af2	-0.28231007
25	0xbf181d5b	-0.5941979
26	0xbefc2e71	-0.49254182
27	0xbec3ee3a	-0.3826769
28	0x3e89b220	0.2689371
29	0xbf56cbff	-0.83905023
30	0x3f003967	0.5008759
31	0xbf3a830e	-0.72856224
32	0x3f35542b	0.70831555
33	0x3e4f6f33	0.20257263
34	0xbe27d161	-0.16388465
35	0x3f3b1b0e	0.7308816
36	0x3f021040	0.50806046
37	0x3f6a4ae4	0.91520524
38	0x3e54543a	0.20735255
39	0xbec62acd	-0.3870453
40	0xbead3425	-0.33828846
41	0xbf152688	-0.5826192
42	0x3ee13e4c	0.4399284
43	0x3f4da8c4	0.8033564
44	0x3f05d43f	0.52276987
45	0xbeec3844	-0.46136677
46	0x3ebfdbdd	0.3747243
47	0x3e523978	0.20529735
48	0x3ea374fe	0.31925195
49	0xbed8d6f6	-0.42351502
50	0xbf3e3d96	-0.7431272
51	0xbf05ab74	-0.5221474
52	0xbf0aefd5	-0.54272205
53	0x3f01c86b	0.5069644
54	0x3ee4158e	0.44547695
55	0x3f004151	0.50099665
56	0x3de9d28b	0.11417111
57	0xbe9a2274	-0.3010441
58	0x3ec409be	0.38288683
59	0xbf4210fa	-0.75807154
60	0x3e6c0172	0.23047426
61	0xbf1a1fe5	-0.6020492
62	0x3ec3af16	0.38219517
63	0xbf081142	-0.53151333
64	0x3ef43aae	0.4770102
65	0xbec4bff2	-0.38427693
66	0x3f3d4150	0.73927784
67	0xbf1c30b0	-0.6101179
68	0xbedc6675	-0.4304692
69	0xbef59fe5	-0.47973552
70	0x3f869acd	1.0515991
71	0x3d5c7ff5	0.053832967
72	0x3efccfdf	0.49377343
73	0xbf21f592	-0.63265336
74	0xbf44ce6d	-0.7687748
75	0xbf27bf70	-0.65526485
76	0xbeb9e546	-0.36307734
77	0x3ea8ff1c	0.33007133
78	0x3eef792e	0.4677214
79	0x3f2c8eb2	0.67405236
80	0xbf1f613f	-0.6225776
81	0xbee752b8	-0.45180297
82	0x3e8c627e	0.27418894
83	0xbf46760e	-0.7752389
84	0x3f15f121	0.5857106
85	0xbd89f2d2	-0.067357674
86	0x3f4f93eb	0.8108508
87	0xbf37008c	-0.7148521
88	0xbf18d94d	-0.59706575
89	0x3f0cfcc3	0.55073184
90	0x3f1686ba	0.58799326
91	0xbe805d7a	-0.25071317
92	0x3f1fd30d	0.6243141
93	0x3f1c62f2	0.6108848
94	0xbf3b99f6	-0.732818
95	0xbf2b17b4	-0.66833043
96	0x3f179a42	0.59219754
97	0xbe59df71	-0.21276642
98	0xbebcf08f	-0.36902282
99	0xbf5ccb08	-0.862473
100	0xbf1cfc8b	-0.6132285
101	0x3e5f001f	0.2177739
102	0xbeae174a	-0.34002143
103	0xbf1a9302	-0.60380566
104	0xbd423d4b	-0.047421735
105	0xbf23bd8f	-0.6396112
106	0xbf4330bd	-0.76246244
107	0xbf2168b9	-0.6305042
108	0xbf10036f	-0.5625524
109	0xbf10de14	-0.56588864
110	0x3f5a9525	0.85383826
111	0x3d1faefa	0.03898523
112	0x3f215451	0.6301928
113	0xbf17de64	-0.59323716
114	0xbf0a2608	-0.5396428
115	0xbe9525c4	-0.29130375
116	0x3d989602	0.07450487
117	0xbf4bc91e	-0.79603755
118	0xbf434ca0	-0.76288795
119	0xbf139dca	-0.5766264

loss.picnn.flows.0.icnn.Wzs.0.bias f4 [20]
0	0xbce2cdb8	-0.027685985
1	0xbd16fc7c	-0.03686188
2	0x3b346382	0.0027525132
3	0xbe266f6e	-0.16253445
4	0xbe7b8d3f	-0.245656
5	0xbdbf7c9b	-0.093499385
6	0xbc9afae2	-0.018918458
7	0xbe8c2c28	-0.2737744
8	0x3e6796ec	0.22616166
9	0xbc275624	-0.010213409
10	0x3e7e5ccb	0.24840085
11	0x3dafd036	0.08584635
12	0xbe6a6db6	-0.22893414
13	0x3dffdd0e	0.12493335
14	0xbd539a13	-0.05166061
15	0xbd88acab	-0.06673559
16	0xbe39c7bc	-0.18142599
17	0xbebadc99	-0.36496428
18	0x3d4e37a6	0.05034604
19	0x3d97107f	0.07376193

loss.picnn.flows.0.icnn.Wzs.1.weight f4 [20, 20]
0	0x3e62d7dc	0.22152656
1	0x3d2a118c	0.04152064
2	0x3e3f83f8	0.18702686
3	0xbd521f7d	-0.05129956
4	0x3db0d092	0.08633532
5	0x3e3955c3	0.18099122
6	0x3dea2e93	0.114346646
7	0x3e7fe162	0.2498832
8	0x3e88cafc	0.26717365
9	0xbde8898b	-0.11354359
10	0x3c35e277	0.011101357
11	0x3d1b30bc	0.037888274
12	0x3dfcdfef	0.123473994
13	0xbc098c0f	-0.008395209
14	0x3ec9293f	0.3928928
15	0x3d68a471	0.05679745
16	0x3df473f4	0.11936179
17	0x3de98f00	0.11404228
18	0x3e8b9503	0.27262124
19	0xbcdbc1c4	-0.026825793
20	0x3f067bbc	0.52532554
21	0x3ed61e76	0.41820115
22	0x3eb1a5b0	0.34696722
23	0x3e94c431	0.29055932
24	0x3eb830c5	0.35974708
25	0x3eac80d2	0.33692032
26	0x3eec7686	0.46184176
27	0x3ee9c1ab	0.4565557
28	0x3e05d850	0.13070798
29	0x3dea3636	0.11436121
30	0x3e0edbcb	0.13951032
31	0x3f06831c	0.5254381
32	0x3ea0a5fb	0.31376633
33	0x3ea06c8e	0.3133282
34	0x3eb829ca	0.35969383
35	0x3e933fc1	0.28759578
36	0x3e1a337b	0.150587
37	0x3efdf4e1	0.4960089
38	0x3f141dab	0.5785777
39	0x3e20e1de	0.15711161
40	0x3e457908	0.19284451
41	0x3eda8252	0.42677552
42	0x3cc9ec97	0.024648948
43	0x3e3afe31	0.18261029
44	0x3e386f0a	0.18011108
45	0x3e1243c3	0.14283662
46	0x3e7721d9	0.24134006
47	0x3e41ea99	0.18937148
48	0x3d857996	0.06517331
49	0x3e18c698	0.14919508
50	0xbd3f7732	-0.046744533
51	0x3e131e5a	0.14367047
52	0x3e32a5b7	0.17446028
53	0x3ed05c19	0.40695265
54	0x3e58a528	0.21156752
55	0x3e411124	0.18854195
56	0x3de995ec	0.114055485
57	0xbcfc27e7	-0.030780746
58	0x3e69efe4	0.22845417
59	0x3e89e8dd	0.26935473
60	0xbd4f4a02	-0.05060769
61	0x3e6068c5	0.21914966
62	0x3dce57f6	0.10075371
63	0x3e95507c	0.29162967
64	0x3dd2c2c9	0.102910586
65	0x3e0250ce	0.12726137
66	0xbd2ca228	-0.04214683
67	0xbe2162f8	-0.1576041
68	0xbd227f51	-0.0396722
69	0x3e17f79d	0.1484055
70	0x3dd50cd9	0.10402841
71	0x3e7d1d9b	0.24718325
72	0xbd620376	-0.05517908
73	0x3d6761ac	0.05648963
74	0x3e3be889	0.18350424
75	0x3f005c64	0.50140977
76	0x3d54e267	0.051973727
77	0x3d1ac21c	0.037782773
78	0x3eadb4a2	0.33926874
79	0x3de3790d	0.11107073
80	0xbcc6d325	-0.024270603
81	0x3ecdd530	0.40201712
82	0xbdca818e	-0.09887992
83	0x3e1c1229	0.15241303
84	0xbc90b5e9	-0.017664867
85	0x3e9ff4b6	0.31241387
86	0x3e728e2b	0.23687045
87	0x3e2d634b	0.16932409
88	0xbda9a5c3	-0.0828357
89	0xbdea1239	-0.11429257
90	0xbe655510	-0.2239573
91	0x3e2e0675	0.1699465
92	0x3e8a2ebf	0.2698879
93	0x3e863b12	0.26216942
94	0x3e952194	0.2912718
95	0x3e6bdf67	0.2303444
96	0x3da29a7a	0.0793962
97	0x3d1b35b2	0.037893005
98	0x3d340eb3	0.04395933
99	0xbd27a2f4	-0.04092689
100	0x3d26e441	0.040745024
101	0xbddef41d	-0.10886405
102	0xbddd47c8	-0.10804707
103	0xbce097dd	-0.027416164
104	0x3d09bc9a	0.03362713
105	0xbd958f17	-0.07302683
106	0xbbd5edd6	-0.0065285964
107	0x3dfd45d4	0.12366834
108	0x3d54bd8b	0.051938575
109	0x3e091ebd	0.13390632
110	0xbe015359	-0.12629451
111	0xbdd96054	-0.10614076
112	0x3dc5d8d6	0.09660499
113	0xbcfbd449	-0.030740874
114	0x3d011c3e	0.031521074
115	0xbe039fbf	-0.12853907
116	0x3e5be0ea	0.21472517
117	0xbcede05e	-0.02903765
118	0x3e661267	0.22467957
119	0x3e35f573	0.17769413
120	0x3eb192ef	0.34682414
121	0x3df08032	0.11743201
122	0x3d8cf24d	0.06882153
123	0x3a290248	0.00064471783
124	0x3e7198b7	0.23593412
125	0x3ebf82e2	0.37404543
126	0xbd14f0fa	-0.036362626
127	0xbd06812a	-0.032838024
128	0x3d35dd34	0.04440041
129	0xbd8d02ca	-0.068852976
130	0x3d2c5fab	0.042083424
131	0xbded53ee	-0.11588274
132	0x3e8c43ab	0.27395377
133	0x3ec063a3	0.37576017
134	0x3eaf9b71	0.3429828
135	0x3e26dd69	0.16295399
136	0xbdff3497	-0.124612026
137	0x3e1186f4	0.14211637
138	0x3e921fa6	0.2853977
139	0xbcaf000b	-0.021362325
140	0x3e2e60a6	0.17029056
141	0x3eb6631e	0.35622495
142	0x3e2797a4	0.1636644
143	0x3e5ac4c2	0.2136412
144	0x3debbaf5	0.115102686
145	0x3e3df8ac	0.18551892
146	0x3e017ad1	0.12644507
147	0x3f07d8d1	0.5306521
148	0x3e9322d7	0.28737518
149	0x3dbd2d3d	0.09237144
150	0x3d900b51	0.070334084
151	0x3ede98d2	0.43475968
152	0x3c0814af	0.008305713
153	0x3e5e7c46	0.21727094
154	0x3f0d828a	0.5527731
155	0x3e3c0ac6	0.18363485
156	0x3e12a085	0.14319046
157	0x3c970d79	0.018439041
158	0x3e8df734	0.27727664
159	0x3e157320	0.14594698
160	0x3d877aad	0.066151954
161	0xbc463edc	-0.012099948
162	0xbdfe4a7e	-0.12416552
163	0xbdbb9c92	-0.09160723
164	0xbd94924d	-0.07254467
165	0x3e5b3352	0.21406296
166	0x3cc277ea	0.02373882
167	0x3e15f1c1	0.14643003
168	0x3e0d343d	0.13789459
169	0x3e056c07	0.1302949
170	0x3ce6e88e	0.028187063
171	0x3e966363	0.293727
172	0x3cbdc388	0.023164526
173	0x3e866498	0.26248622
174	0x3e6abc36	0.2292336
175	0x3d89bb97	0.06725233
176	0x3e430a3b	0.19046871
177	0x3e2df332	0.16987303
178	0x3d8a2591	0.067454465
179	0x3e168ef7	0.14702974
180	0xbd2d77f7	-0.042350736
181	0x3e474a3c	0.19461912
182	0x3e3036c8	0.17208397
183	0x3e28d68a	0.1648809
184	0xbd715e7c	-0.058927998
185	0xbb358826	-0.002769956
186	0xbda90f6e	-0.08254896
187	0xbd1f20dc	-0.038849697
188	0xbd97bedd	-0.07409451
189	0x3d4fecfb	0.05076311
190	0x3d579249	0.052629743
191	0x3e10c536	0.1413773
192	0xbd2c9301	-0.04213238
193	0xbc5119dc	-0.012762513
194	0x3e314eef	0.17315267
195	0xbc401cd5	-0.011725624
196	0x3c34d5ea	0.011037329
197	0x3e5a06b7	0.21291624
198	0xbd141db8	-0.036161155
199	0x3e873a25	0.26411548
200	0x3e94f19e	0.2909059
201	0x3eae1c5f	0.3400602
202	0x3e04768b	0.12935846
203	0x3ded39ad	0.115832664
204	0x3ce908f5	0.028446654
205	0x3d977fae	0.073974
206	0x3f10e563	0.56600016
207	0x3e6b5ceb	0.22984664
208	0xbcb01e3e	-0.021498796
209	0x3e5fbf67	0.21850358
210	0x3e84fa98	0.25972438
211	0x3f41755e	0.75569713
212	0x3e9908a8	0.29889417
213	0x3eec1f12	0.46117455
214	0x3e5875db	0.21138708
215	0x3ebad9f7	0.3649442
216	0x3ecc29be	0.39875597
217	0x3dc1a3c9	0.09455068
218	0x3e289430	0.16462779
219	0x3f0ebedc	0.5575998
220	0x3e3cae30	0.18425822
221	0x3ecc0337	0.39846203
222	0x3e8ef872	0.27923924
223	0x3ea471fd	0.32118216
224	0x3ed8e2cb	0.4236053
225	0x3ea5f2dc	0.3241185
226	0x3f02ab67	0.5104279
227	0x3e903322	0.2816401
228	0xbda9b984	-0.082873374
229	0x3e24d0c7	0.16095267
230	0x3e9a1c50	0.30099726
231	0x3f193a16	0.5985426
232	0x3d2b0859	0.041756008
233	0x3e65dfb9	0.22448625
234	0x3eb57138	0.35437942
235	0x3e94feba	0.2910059
236	0x3eb947e2	0.36187655
237	0x3f131115	0.5744794
238	0x3f043e95	0.5165799
239	0x3e5f0205	0.21778114
240	0x3e354171	0.17700745
241	0x3bc1eb59	0.005917948
242	0x3cba26b3	0.022723531
243	0x3e559f14	0.20861465
244	0x3e11d5e2	0.14241746
245	0x3eada6b3	0.33916244
246	0xbe074b4c	-0.13212317
247	0xbdca3d66	-0.09874992
248	0x3e3c5092	0.1839011
249	0x3ca94de8	0.020667031
250	0xbe527365	-0.20551832
251	0x3dabbe25	0.083858766
252	0x3e6c5803	0.23080449
253	0x3e8179b6	0.2528817
254	0x3e326952	0.17422989
255	0x3dacd683	0.08439352

loss.picnn.flows.0.icnn.Wzs.1.bias f4 [20]
0	0xbeb07f2f	-0.34472033
1	0xbeb24631	-0.34819177
2	0xbe6f781e	-0.23385665
3	0xbe0358ad	-0.12826796
4	0x3da1309e	0.07870601
5	0xbe11b94a	-0.14230838
6	0xbe2607c4	-0.162139
7	0xbd466f1a	-0.0484458
8	0xbbaf0a1e	-0.0053417822
9	0xbe0e655b	-0.13905852
10	0xbeda9396	-0.42690724
11	0xbe7ab88e	-0.24484465
12	0xbebde2bc	-0.37087047
13	0xbe0ab52c	-0.13545674
14	0xbea9d64a	-0.33171302
15	0xbee82327	-0.4533932
16	0xbd0a68fe	-0.033791535
17	0xbdf8d9e9	-0.12150938
18	0xbdf4d7d7	-0.11955231
19	0xbdf68bd3	-0.12038388

loss.picnn.flows.0.icnn.Wzs.2.weight f4 [1, 20]
0	0x3e96181c	0.2931527
1	0x3e97014f	0.29493186
2	0x3e284d67	0.16435777
3	0xbdec090f	-0.11525165
4	0xbc818e1f	-0.015814839
5	0xbd778e4a	-0.06043843
6	0xbd3c747a	-0.04600952
7	0xbbaae93e	-0.005215793
8	0xbd33bf62	-0.04388369
9	0x3ca56c0f	0.020193128
10	0xbd337900	-0.043816566
11	0xbdd6da13	-0.10490813
12	0xbd1b03e0	-0.037845492
13	0x3e153ed4	0.14574748
14	0x3e82ea8d	0.25569573
15	0xbd00c1db	-0.031434875
16	0xbd873753	-0.06602349
17	0x3e67521c	0.22589916
18	0xbdbbb4c8	-0.09165341
19	0x3c2539a7	0.010084546

loss.picnn.flows.0.icnn.Wxs.0.weight f4 [20, 6]
0	0x3e66f543	0.22554497
1	0xbe458b1c	-0.19291347
2	0x3e2aa14d	0.16663094
3	0x3e09504c	0.13409537
4	0x3e4921b6	0.19641766
5	0xbcc0dca3	-0.023542708
6	0xbdd3625e	-0.103214964
7	0x3d052962	0.03251017
8	0xbbd6f455	-0.0065598884
9	0x3d909fb8	0.07061714
10	0x3e82ab4d	0.25521317
11	0x3ea39ef9	0.31957224
12	0xbecce95a	-0.40021783
13	0xbdd48996	-0.10377805
14	0xbe6f1433	-0.23347549
15	0xbecf6b72	-0.40511662
16	0xbdc113d8	-0.09427613
17	0xbef0e39f	-0.4704866
18	0x3e332cce	0.1749756
19	0x3deb581e	0.114914164
20	0xbe680089	-0.22656454
21	0xbd6a6983	-0.05722953
22	0xbe9a7fa1	-0.30175498
23	0xbe5f3f4c	-0.2180149
24	0x3cb00797	0.021487994
25	0xbdf3a901	-0.11897469
26	0xbdb93e03	-0.09045031
27	0xbe669ae3	-0.22520022
28	0x3ebd4776	0.36968583
29	0x3e81c1a0	0.25343037
30	0x3e997f80	0.29980087
31	0xbe144da5	-0.14482744
32	0xbe059b5d	-0.13047548
33	0x3e7afade	0.2450976
34	0x3e37f825	0.17965753
35	0xbcefa6e3	-0.029254382
36	0x3e115d71	0.14195801
37	0xbe35b85b	-0.17746107
38	0xbca42252	-0.020035896
39	0xbca5d997	-0.020245356
40	0xbd22c525	-0.039738793
41	0xbe2c81da	-0.1684641
42	0xbeaee0bd	-0.34155837
43	0xbe7addc2	-0.24498656
44	0xbdab1437	-0.08353465
45	0xbeae4862	-0.340396
46	0xbe17c5cc	-0.14821547
47	0xbd810b1c	-0.06300947
48	0xbeb79ffc	-0.35864246
49	0x3dc1b73c	0.09458777
50	0xbd937407	-0.07199865
51	0xbec6a97c	-0.3880118
52	0x3d88186f	0.06645285
53	0x3e630496	0.22169718
54	0xbe36f2fc	-0.17866129
55	0xbea26a82	-0.31721884
56	0xbea116c3	-0.31462678
57	0xbee0ab25	-0.43880573
58	0xbeb48ff5	-0.3526608
59	0xbe99ce79	-0.3004034
60	0x3b580716	0.0032963208
61	0xbef31ced	-0.47483006
62	0x3e7c330c	0.24628848
63	0x3e06e96a	0.13174978
64	0xbeb179b1	-0.34663156
65	0xbe93d9b5	-0.28877035
66	0x3e5458db	0.2073702
67	0xbdea3723	-0.11436298
68	0xbd9d8a16	-0.076923534
69	0xbe6ebbde	-0.23313853
70	0x3e91bc26	0.28463858
71	0xbe6c3747	-0.23067962
72	0x3ed55dd9	0.41673163
73	0x3dc41a40	0.09575319
74	0x3db7674c	0.08955249
75	0x3dc4ba3c	0.09605834
76	0x3d874964	0.06605795
77	0xbe306d5e	-0.1722922
78	0xbd2b8e59	-0.0418838
79	0x3e9e8387	0.30959722
80	0xbe9d5e5c	-0.30736053
81	0x3cbd7184	0.023125418
82	0xbeb95cb5	-0.36203542
83	0x3e320c97	0.17387615
84	0x3e6ee18e	0.2332823
85	0xbd1cbbc2	-0.038264997
86	0x3db5a715	0.08869759
87	0xbced3fb8	-0.028961048
88	0x3e89c80e	0.26910442
89	0xbe945b18	-0.2897575
90	0xbacfceba	-0.0015854456
91	0x3e816321	0.25270942
92	0x3ef68757	0.4815013
93	0x3d41500c	0.04719548
94	0xbe66069d	-0.2246346
95	0x3e8dec8c	0.27719533
96	0xbd91eef6	-0.07125656
97	0xbd014e31	-0.03156871
98	0xbe92b19a	-0.28651124
99	0xbe3f2de5	-0.18669851
100	0x3e5dc0f1	0.21655633
101	0x3d663004	0.056198135
102	0xbeacff5d	-0.33788577
103	0x3e295c39	0.16539086
104	0xbdc85a77	-0.0978288
105	0x3e3d46d9	0.18484057
106	0xbec001f1	-0.3750148
107	0xbe0232c0	-0.12714672
108	0xbe84a35d	-0.25905886
109	0xbd8b5e51	-0.06805099
110	0x3e4e6382	0.20155147
111	0x3e7ac6c9	0.24489893
112	0x3e51662c	0.20449132
113	0x3ec06f69	0.37585
114	0x3ec80e2e	0.39073318
115	0x3e9b88b9	0.3037775
116	0x3e866882	0.26251608
117	0x3e9c9cd5	0.30588403
118	0x3bca4451	0.0061726947
119	0x3ef57233	0.4793869

loss.picnn.flows.0.icnn.Wxs.0.bias f4 [20]
0	0xbae37a86	-0.001735524
1	0xbf014310	-0.50492954
2	0xbeba5b2a	-0.36397678
3	0xbef0f7cc	-0.47064054
4	0xbc92f3d5	-0.017938534
5	0xbeea5779	-0.4576986
6	0xbdfdb4e5	-0.123880185
7	0xbdb57093	-0.088593625
8	0xbef82a54	-0.48469794
9	0x3cf370ff	0.029716967
10	0xbed31100	-0.41223907
11	0xbe334c5d	-0.17509599
12	0xbdda487b	-0.10658356
13	0xbf17c80d	-0.5928963
14	0x3d3de855	0.046364147
15	0xbc38383f	-0.011243879
16	0x3cf66af4	0.030080296
17	0xbef90b15	-0.48641267
18	0xbeadd71b	-0.33953175
19	0xbed9e17e	-0.4255485

loss.picnn.flows.0.icnn.Wxs.1.weight f4 [1, 6]
0	0xbbcd2150	-0.0062600747
1	0x3d99845e	0.0749595
2	0x3da054e6	0.07828693
3	0x3d7fba41	0.062433485
4	0x3b3ad015	0.0028505374
5	0xbcd0c81d	-0.025486046

loss.picnn.flows.0.icnn.Wcs.0.weight f4 [20, 24]
0	0xbc91d59f	-0.017802058
1	0xbe1670d2	-0.14691475
2	0xbda599a5	-0.08085946
3	0xbd51bd9e	-0.051206224
4	0x3d84f3ca	0.064918116
5	0xbddf01f8	-0.108890474
6	0xbd819900	-0.063280106
7	0x3d8baa6a	0.06819613
8	0xbcc0567d	-0.02347874
9	0x3e3d509d	0.18487783
10	0xbda83eaa	-0.08215077
11	0xbe07072c	-0.1318633
12	0x3c3128b6	0.010812929
13	0x3e3a511d	0.18195005
14	0x3e6672e4	0.22504765
15	0xbc29d333	-0.010365295
16	0x3a49e45a	0.00077015685
17	0x3dec5c31	0.115410216
18	0xbd4eef2f	-0.050521072
19	0xbd92ea9b	-0.07173654
20	0x3d501901	0.050805096
21	0xbde27c1c	-0.11058828
22	0x3d5d522f	0.054033455
23	0x3da9cdce	0.08291207
24	0xbd48936f	-0.04896873
25	0x3e2d9d38	0.16954505
26	0xbd87ec5b	-0.06636878
27	0xbc00b061	-0.007854552
28	0x3e28ab2d	0.16471548
29	0x3d7581fe	0.059938423
30	0x3d95d1dc	0.07315418
31	0x3e046314	0.1292842
32	0xbe244239	-0.16040887
33	0x3e494202	0.19654086
34	0xbd10e231	-0.035371963
35	0x3d999619	0.07499332
36	0xbe15af38	-0.14617622
37	0xbcddade7	-0.027060462
38	0xbb402224	-0.0029317224
39	0x3e8c6d2a	0.27427036
40	0x3b3a9272	0.0028468636
41	0xbe37cf1d	-0.17950101
42	0x3d361c32	0.044460483
43	0x3e707c75	0.23484977
44	0x3da62137	0.08111804
45	0xbda3a8e1	-0.079911955
46	0x3e2c8c66	0.16850433
47	0xbc4c239f	-0.012459665
48	0xbcbd515b	-0.023110082
49	0x3d126fa9	0.03575102
50	0xbe13e50d	-0.14442845
51	0xbcfd0830	-0.030887693
52	0x3df11ee3	0.11773469
53	0x3d22c609	0.039739642
54	0x3da8eab0	0.08247888
55	0xbdaedfcb	-0.08538779
56	0x3df64df3	0.120265864
57	0x3e1091b1	0.14118077
58	0xbe53f63e	-0.20699403
59	0xbe5d4ef7	-0.21612154
60	0x3e13eaa7	0.14444982
61	0x3e2dbba5	0.16966112
62	0xbe189d6f	-0.14903806
63	0x3e539bbf	0.20664881
64	0xbd5a9caa	-0.053372063
65	0x3e23a86b	0.15982215
66	0xbb34e13d	-0.0027600073
67	0xbdd92600	-0.10602951
68	0x3de4af29	0.11166222
69	0xbd9dd79e	-0.07707141
70	0xbdf5508d	-0.119782545
71	0x3cadc4f0	0.021212071
72	0xbe42d2bd	-0.19025703
73	0x3e04e154	0.12976581
74	0xbdfb9cd8	-0.12285775
75	0x3df5c21e	0.119999155
76	0xbe390594	-0.18068534
77	0x3e68c1ae	0.22730133
78	0xbe8003b4	-0.25002825
79	0xbdc89429	-0.09793884
80	0xbd923e43	-0.07140782
81	0xbd121e80	-0.03567362
82	0x3e04cd20	0.12968874
83	0x3bd2dc2e	0.006434939
84	0xbe8ad13c	-0.27112758
85	0xbbe3523a	-0.0069372924
86	0x3d85d473	0.06534662
87	0x3dcc81cf	0.099856965
88	0x3e2a722e	0.16645119
89	0xbe3fe42c	-0.18739384
90	0x3d862d41	0.065516
91	0x3e117075	0.14203055
92	0xbd353c2b	-0.044246834
93	0xbccd817c	-0.025086157
94	0x3d8e7559	0.06955976
95	0x3e11cb7f	0.14237784
96	0xbe07c4b3	-0.13258629
97	0xbdc640b1	-0.09680308
98	0xbc414d14	-0.011798162
99	0x3dadcbc5	0.084861316
100	0x3e04178c	0.12899607
101	0x3c8cbf53	0.017181074
102	0x3db402f1	0.087896235
103	0x3d10e5fe	0.035375588
104	0x3c513552	0.01276906
105	0x3d9e64a3	0.07734039
106	0xbddf39be	-0.10899685
107	0x3ce869ab	0.028370699
108	0xbdfe05c9	-0.12403447
109	0x3e12d59b	0.14339297
110	0xbc885060	-0.016639888
111	0x3cbee90b	0.023304483
112	0x3ddd0d0b	0.107935034
113	0xbd8ab0e4	-0.067720205
114	0x3df2d08f	0.11856186
115	0xbd92be63	-0.0716522
116	0xbdc3836a	-0.095465496
117	0xbd9ab36e	-0.07553755
118	0x3da87e51	0.08227218
119	0x3d00346b	0.03129999
120	0xbe296ccd	-0.1654541
121	0xbd743161	-0.059617404
122	0x3ea3309c	0.31873024
123	0x3eaa70c8	0.3328917
124	0xbe237da2	-0.15965894
125	0x3cd30f3a	0.025764097
126	0xbea17775	-0.3153645
127	0xbdec7298	-0.115452945
128	0xbe8a6143	-0.2702733
129	0x3e8aac21	0.2708445
130	0x3ea2dadc	0.318076
131	0x3da5679f	0.08076405
132	0x3d447389	0.047961745
133	0x3d43ca98	0.04780063
134	0x3e7a32f2	0.24433497
135	0xbe810eb0	-0.25206518
136	0x3def3163	0.11679342
137	0xbe0b6fbd	-0.13616844
138	0x3e0a8cc2	0.13530257
139	0x3e5335f9	0.20626058
140	0xbdc8ca4b	-0.09804209
141	0x3d9af121	0.07565523
142	0x3e0cc460	0.13746786
143	0xbe2ff9c5	-0.17185123
144	0x3d9f5e50	0.077816606
145	0x3e3fd476	0.18733391
146	0x3e4ca132	0.19983366
147	0x3ddcd2f4	0.107824236
148	0x3d76a8de	0.060219638
149	0x3cbe7327	0.023248268
150	0x3e1b234b	0.15150182
151	0x3d5b572a	0.053549923
152	0x3dd18ea5	0.102322854
153	0x3e175e51	0.14782073
154	0x3e2485cb	0.16066663
155	0x3e68ccb0	0.22734332
156	0x3e889726	0.26677817
157	0x3e48488f	0.19558929
158	0x3e5a80de	0.21338221
159	0x3e14463f	0.14479922
160	0x3e98e391	0.2986112
161	0x3e1c82f8	0.15284336
162	0x3cc7b8df	0.024380146
163	0x3e3dc120	0.18530703
164	0xb96b5aee	-0.0002244522
165	0x3e8d0d0a	0.2754901
166	0x3dd0ed18	0.10201472
167	0x3dc03c36	0.09386484
168	0x3d871d38	0.0659737
169	0x3d908f29	0.07058556
170	0xbd3578f6	-0.04430481
171	0xbca651dd	-0.020302707
172	0xbd313b54	-0.04326947
173	0x3c883c44	0.0166303
174	0x3dea9ac3	0.114553
175	0x3d5c1e11	0.05373961
176	0x3de5fc06	0.1122971
177	0x3d5256f8	0.05135247
178	0x3cf5ae4c	0.029990338
179	0x3e01f3d5	0.12690671
180	0xbe1d7dae	-0.15379974
181	0x3d5a5d76	0.053311788
182	0x3ccfb5c7	0.025355233
183	0xbd959dde	-0.073055014
184	0xbda11d4d	-0.07866917
185	0x3d2d7c5f	0.042354938
186	0x3d874124	0.066042215
187	0x3e134e34	0.14385301
188	0x3e1db12b	0.15399615
189	0xbe080453	-0.132829
190	0x3bb78e2d	0.0056016655
191	0x3d76b95d	0.06023537
192	0xbd907e21	-0.07055307
193	0x3cb5c65d	0.022189314
194	0xbdfa3469	-0.12217028
195	0x3e2cc61a	0.16872445
196	0xbd8d61eb	-0.06903442
197	0x3e1cc3b1	0.15309025
198	0xbe0023af	-0.12513612
199	0xbc4e36d8	-0.012586318
200	0xbdde9ee2	-0.10870148
201	0x3dc6fbba	0.09715982
202	0xbc78f15d	-0.015194264
203	0x3c806572	0.015673373
204	0x3c40703b	0.011745508
205	0xbde30196	-0.11084287
206	0xbcdd2127	-0.026993347
207	0xbe31efd6	-0.17376646
208	0x3ddfdbcf	0.10930597
209	0xbc9fa6bf	-0.01948869
210	0x3c0d2f09	0.008617171
211	0x3e3ce4dd	0.1844668
212	0xbd315be2	-0.043300517
213	0x3dd23ec7	0.1026588
214	0xbbe0b79a	-0.0068578245
215	0xbce26806	-0.027637493
216	0xbe854ce7	-0.26035234
217	0xbd3ea88c	-0.046547458
218	0x3e5e8515	0.21730454
219	0x3e94048b	0.28909716
220	0xbe4bbf82	-0.19897273
221	0xbd340cc7	-0.043957498
222	0xbdfbbe18	-0.12292117
223	0xbde90334	-0.11377564
224	0xbe5903fc	-0.21192926
225	0x3e72113a	0.23639384
226	0x3ea5ae00	0.32359314
227	0xbd92b758	-0.07163876
228	0x3d8a0223	0.06738689
229	0xbe0c2346	-0.13685331
230	0x3dadda0b	0.08488854
231	0xbe91b11a	-0.2845543
232	0x3e903191	0.28162816
233	0x3e72a104	0.23694235
234	0x3aa490d4	0.0012555369
235	0x3dd1b707	0.10239988
236	0xbf035733	-0.5130493
237	0x3e65b048	0.22430527
238	0x3e1238c5	0.14279468
239	0x3e305837	0.17221151
240	0xbd448970	-0.047982633
241	0xbb690bfb	-0.003556012
242	0x3be33648	0.006933961
243	0xbd451f9e	-0.048125856
244	0x3cd7e381	0.0263536
245	0x3db6b51a	0.08921261
246	0x3d8f3230	0.069919944
247	0xbcff82e6	-0.031190347
248	0x3cea3e4d	0.02859416
249	0xbd54ea85	-0.051981468
250	0xbde2ee2c	-0.11080584
251	0x3dc59582	0.09647657
252	0xbca0b0c1	-0.019615533
253	0x3e500f78	0.20318401
254	0x3dd92a9f	0.106038325
255	0xbd4a7f71	-0.049437944

loss.picnn.flows.0.icnn.Wcs.0.bias f4 [20]
0	0x3e8f45b0	0.27982855
1	0x3eb02e8e	0.34410518
2	0x3ec4312a	0.3831876
3	0x3e9f8403	0.31155404
4	0x3ee85181	0.45374683
5	0xbeb6df7f	-0.3571739
6	0x3e07c655	0.13259251
7	0x3eefa9d9	0.4680927
8	0xbd4ec26d	-0.050478388
9	0xbeaaeac7	-0.33382246
10	0x3ec1ea9a	0.378743
11	0x3ea2d544	0.31803334
12	0x3eb10544	0.3457433
13	0xbed68e31	-0.41905358
14	0x3e44273d	0.19155593
15	0x3e88b95f	0.26703927
16	0xbe9550f7	-0.29163334
17	0xbf0d1d82	-0.5512315
18	0x3eb57925	0.35443988
19	0xbf1fc007	-0.62402385

loss.picnn.flows.0.icnn.Wczs.0.weight f4 [20, 20]
0	0x3e1a2c8e	0.15056059
1	0x3df322b2	0.11871852
2	0x3e50dfb8	0.20397842
3	0x3dc67148	0.096895754
4	0x3db1254a	0.086496904
5	0xbf0bb7d6	-0.54577386
6	0x3e61feeb	0.220699
7	0x3e2ea1de	0.17053935
8	0xbd09d906	-0.033654235
9	0xbf05081f	-0.51965517
10	0x3e0010d7	0.12506424
11	0x3e3ca693	0.18422918
12	0x3de974a9	0.11399204
13	0xbf18db78	-0.5970988
14	0x3e415a28	0.18882048
15	0x3e87a1ae	0.2649054
16	0xbf15cdba	-0.5851704
17	0xbf13cf12	-0.5773784
18	0x3d149114	0.03627117
19	0xbf18601b	-0.59521645
20	0x3e235606	0.15950784
21	0x3e7a67ac	0.2445361
22	0x3e998010	0.29980516
23	0x3e3d1421	0.1846471
24	0x3e59cbd2	0.21269158
25	0xbf210254	-0.6289418
26	0x3e3819c8	0.17978585
27	0x3e4c5ce5	0.19957311
28	0x3da6cd89	0.081446715
29	0xbf255b2d	-0.6459225
30	0x3e656da7	0.2240511
31	0x3ea46111	0.32105306
32	0x3e4e6c24	0.2015844
33	0xbf3df5fd	-0.74203473
34	0x3e8ec3ca	0.2788375
35	0x3ebc08df	0.36725518
36	0xbf372e73	-0.7155525
37	0xbf341270	-0.70340633
38	0x3d99f319	0.0751707
39	0xbf38feea	-0.7226397
40	0xbc8680c9	-0.016418831
41	0x3d9af646	0.07566504
42	0x3e0e8ff3	0.139221
43	0x3be822c5	0.007084223
44	0x3cd35b20	0.025800288
45	0xbe9e2c61	-0.30893233
46	0x3de158a9	0.11003239
47	0x3a9a8160	0.0011787824
48	0x3c50fc2d	0.012755436
49	0xbeac54a7	-0.33658335
50	0x3d1e231d	0.038607705
51	0x3dfdf266	0.123997495
52	0x3e27bc7e	0.16380498
53	0xbedf6824	-0.4363414
54	0x3d993902	0.074815765
55	0x3e0b8bbc	0.13627523
56	0xbee17ac1	-0.44038966
57	0xbed6bf2f	-0.41942737
58	0x3e082fb2	0.13299444
59	0xbee33a5a	-0.44380456
60	0x3e1cbaed	0.15305682
61	0x3e736ca2	0.23771909
62	0x3e849119	0.2589195
63	0x3e09a51f	0.13441895
64	0x3daf6559	0.085642524
65	0xbf0d7197	-0.5525145
66	0x3e46c0d1	0.19409491
67	0x3dfe20bf	0.124085896
68	0x3d5772ad	0.052599598
69	0xbef24359	-0.47317007
70	0x3e8204fa	0.25394422
71	0x3e6cb04b	0.23114125
72	0x3e8ba8aa	0.27277118
73	0xbf103181	-0.56325537
74	0x3e77cce9	0.24199261
75	0x3ebb88a8	0.36627698
76	0xbf1095f8	-0.56478834
77	0xbf0fa00c	-0.5610359
78	0x3d74a7ba	0.05973027
79	0xbf11c74d	-0.56944734
80	0xbceac42c	-0.028657995
81	0x3e902d58	0.28159595
82	0x3e2f7529	0.17134537
83	0x3ea9a8c3	0.33136567
84	0x3e165ffc	0.14685053
85	0xbecf25a0	-0.40458393
86	0x3e1b6db1	0.15178563
87	0x3e042621	0.1290517
88	0x3e772ac2	0.24137405
89	0xbedc9a68	-0.43086553
90	0x3e0182bb	0.12647526
91	0x3e574bca	0.21025005
92	0x3ecb7bc0	0.3974285
93	0xbf084d41	-0.5324288
94	0x3e74225d	0.23841234
95	0x3e80f035	0.25183263
96	0xbf066862	-0.52503026
97	0xbf02520b	-0.5090644
98	0x3eb34a1c	0.35017478
99	0xbf0462a2	-0.51713
100	0x3e05b66f	0.13057874
101	0x3e5ba262	0.21448663
102	0x3e8394e0	0.2569952
103	0x3df69581	0.12040234
104	0x3e3746d1	0.17898108
105	0xbf048e67	-0.5177979
106	0x3e87a00a	0.26489288
107	0x3e55e886	0.20889482
108	0x3e20b030	0.1569221
109	0xbf0093fe	-0.5022582
110	0x3e5675f4	0.20943433
111	0x3e63eb0a	0.22257629
112	0x3e45301f	0.19256638
113	0xbf21a0b2	-0.63135827
114	0x3e6a63dd	0.22889657
115	0x3e9c5d53	0.3053995
116	0xbf1cb15e	-0.6120814
117	0xbf1813f6	-0.5940546
118	0x3da59c62	0.08086468
119	0xbf1d9963	-0.61562175
120	0x3e2d11f0	0.16901374
121	0x3e6ab679	0.2292117
122	0x3e82122f	0.25404498
123	0x3e606183	0.21912198
124	0x3da9dcef	0.08294093
125	0xbef011d1	-0.46888593
126	0x3e92ad63	0.2864791
127	0x3e3153f3	0.1731718
128	0x3d996691	0.07490266
129	0xbf01a897	-0.5064787
130	0x3e0b98b3	0.13632469
131	0x3e7890fb	0.24274056
132	0x3e85edef	0.2615809
133	0xbf104c82	-0.5636674
134	0x3e5ef52b	0.21773212
135	0x3e991ee7	0.2990639
136	0xbf1656bb	-0.5872609
137	0xbf130eb1	-0.5744429
138	0x3e18b260	0.14911795
139	0xbf128bac	-0.5724437
140	0x3e05a01b	0.13049357
141	0x3d8558a3	0.06511047
142	0x3e57ddde	0.2108073
143	0xbe1611a2	-0.14655164
144	0x3d233697	0.039846983
145	0xbed87f0a	-0.42284423
146	0x3eb1902c	0.34680307
147	0x3e3da616	0.18520388
148	0xbe0ad187	-0.13556491
149	0xbec11ec2	-0.3771878
150	0x3dc51b50	0.0962435
151	0x3e1a7988	0.15085423
152	0xbd67eb12	-0.056620665
153	0xbef1718a	-0.47156936
154	0x3dbfeaa3	0.09370925
155	0x3dfd393f	0.123644345
156	0xbefb30c9	-0.49060658
157	0xbeeefd1c	-0.46677482
158	0xbe0e1097	-0.13873516
159	0xbef4e539	-0.47831133
160	0x3d614ed4	0.055006817
161	0x3d0ccead	0.03437679
162	0x3e2810d2	0.16412666
163	0xbc990b8b	-0.018682262
164	0x3cd0fabe	0.025510188
165	0xbebb742f	-0.3661208
166	0x3e56da70	0.20981765
167	0x3dd8b074	0.10580531
168	0xbd89fefd	-0.06738088
169	0xbea6c1ff	-0.32569882
170	0x3de37ca9	0.111077614
171	0x3e187000	0.14886475
172	0x3c227a74	0.00991689
173	0xbedccfdb	-0.4312733
174	0x3dc0848d	0.09400282
175	0x3e32abe7	0.17448388
176	0xbee2faaa	-0.44331867
177	0xbed95d62	-0.42454058
178	0xbd88f76c	-0.06687817
179	0xbee2e63e	-0.44316286
180	0x3e41c0e8	0.18921244
181	0x3e124ead	0.14287825
182	0x3e6bab7d	0.23014636
183	0xbd9c99cb	-0.07646521
184	0x3d6768f8	0.05649659
185	0xbeb8a402	-0.36062628
186	0x3dd592a3	0.10428359
187	0x3dfa5e0e	0.12224971
188	0xbcedb221	-0.029015603
189	0xbeb5bbe7	-0.3549492
190	0x3e3ea6d5	0.18618329
191	0x3e45282c	0.19253606
192	0x3dc7a3e7	0.09748059
193	0xbee4d561	-0.44694045
194	0x3e38a4f8	0.1803168
195	0x3e879c5b	0.26486477
196	0xbedefd6d	-0.43552724
197	0xbed9ebec	-0.42562807
198	0x3b5681c8	0.0032731164
199	0xbee377ba	-0.44427282
200	0x3ca15c26	0.01969726
201	0x3b9c0d00	0.004762292
202	0x3d34d59a	0.04414902
203	0xbd2ecc7c	-0.04267548
204	0xbc4a576a	-0.012349943
205	0xbe87d3b0	-0.26528692
206	0xbe237a24	-0.15964562
207	0xbd6ffce7	-0.058590796
208	0x3b6ae654	0.0035842853
209	0xbe7c835b	-0.24659483
210	0x3d621777	0.05519816
211	0x3d186a4f	0.03721076
212	0x3cebc921	0.02878243
213	0xbe9ce230	-0.30641317
214	0x3d8bf4ac	0.06833777
215	0x3e1589bf	0.14603327
216	0xbea65a0a	-0.3249057
217	0xbea1f253	-0.3163019
218	0xbe2d7dad	-0.16942473
219	0xbe9d22cd	-0.30690613
220	0x3e411920	0.1885724
221	0x3e966bb3	0.29379043
222	0x3eaeacc5	0.34116188
223	0x3e4829af	0.19547151
224	0x3e5e4bb1	0.21708561
225	0xbf18fdb6	-0.5976213
226	0x3ea56aac	0.32307947
227	0x3e89470b	0.26812014
228	0x3da8bc21	0.08239008
229	0xbf152724	-0.5826285
230	0x3e9be8c4	0.30451024
231	0x3eaaf0d1	0.33386853
232	0x3ea30843	0.3184224
233	0xbf30035a	-0.68755114
234	0x3eab0979	0.33405665
235	0x3ebeb84f	0.3724999
236	0xbf2c9b0d	-0.6742409
237	0xbf2b2a76	-0.66861665
238	0x3e0798ec	0.13241929
239	0xbf2ef2c9	-0.6833921
240	0x3d245adc	0.040125713
241	0x3e3af64f	0.18258022
242	0x3e5c0feb	0.21490447
243	0x3e3342d5	0.17505963
244	0x3e009b4e	0.12559244
245	0xbec4c010	-0.38427782
246	0x3e6fc3d1	0.23414542
247	0x3dbffc1f	0.0937426
248	0x3e1bab40	0.15202045
249	0xbee5818f	-0.44825408
250	0x3e09bccd	0.13450928
251	0x3e53fff3	0.20703106
252	0x3e6cf40d	0.23139973
253	0xbf09d6e3	-0.53843516
254	0x3e5d6fe5	0.21624716
255	0x3e842656	0.25810498

loss.picnn.flows.0.icnn.Wczs.0.bias f4 [20]
0	0x3f117a1c	0.5682695
1	0x3f328397	0.6973204
2	0x3edef095	0.43542925
3	0x3f0e3769	0.555533
4	0x3f052aaf	0.52018255
5	0x3f175d26	0.5912651
6	0x3f152aa8	0.58268213
7	0x3ef7ad49	0.48374394
8	0x3ee00736	0.43755502
9	0x3ed86df5	0.4227139
10	0x3ea8e01e	0.32983488
11	0x3f277679	0.6541515
12	0x3f0123d7	0.5044531
13	0x3f1b7745	0.60728866
14	0x3f304eba	0.6887013
15	0x3f144f87	0.5793385
16	0x3f000062	0.50000584
17	0x3efaf59d	0.49015513
18	0x3f1cc5e5	0.61239463
19	0x3f137216	0.57595956

loss.picnn.flows.0.icnn.Wczs.1.weight f4 [20, 20]
0	0x3d226249	0.039644513
1	0x3e26bde8	0.16283381
2	0x3e038017	0.12841831
3	0x3e5eeeaf	0.21770738
4	0x3cab1703	0.020884996
5	0xbdd703bd	-0.1049876
6	0x3e2a7e9d	0.16649862
7	0x3c5acea2	0.013354929
8	0x3e2ee460	0.17079306
9	0xbe6cab0c	-0.23112124
10	0x3dc0a432	0.09406318
11	0x3e05d414	0.13069183
12	0x3e80c05a	0.25146753
13	0xbe76f0e8	-0.24115336
14	0x3e0eeb7a	0.13957015
15	0x3e319fb6	0.17346081
16	0xbe8e8ab5	-0.278402
17	0xbe8c6447	-0.27420256
18	0x3ec36a52	0.38167053
19	0xbe86b41e	-0.26309294
20	0x3d7525eb	0.059850615
21	0x3df5d72e	0.12003933
22	0x3d7efb72	0.062251516
23	0x3d2af046	0.04173305
24	0x3d6e1346	0.05812385
25	0xbe8a84ad	-0.2705435
26	0x3d95f00f	0.07321178
27	0x3dcd0dd9	0.10012407
28	0xbd728238	-0.059206218
29	0xbe96c4c4	-0.29446995
30	0x3d7dc1bb	0.061952334
31	0x3d98223e	0.07428406
32	0x3e00ec40	0.12590122
33	0xbeb6dab0	-0.3571372
34	0x3d43f8ab	0.04784457
35	0x3d6d2665	0.057897944
36	0xbebc2c40	-0.3675251
37	0xbeb52f89	-0.3538783
38	0x3dbd340f	0.09238445
39	0xbeab45be	-0.33451647
40	0xbb7709cd	-0.003769505
41	0xbd8cb1cf	-0.06869852
42	0x3cedcdd0	0.029028803
43	0xbe6a7540	-0.2289629
44	0xbd5956a3	-0.05306114
45	0xbeb54198	-0.35401607
46	0x3dabc4de	0.08387159
47	0x3d8afbd9	0.067863174
48	0xbe382d69	-0.17986073
49	0xbe28c9a7	-0.16483174
50	0xbc998c9d	-0.018743807
51	0xbd0ec62d	-0.034856964
52	0xbe724b8e	-0.23661634
53	0xbe956631	-0.29179528
54	0xbc11643a	-0.0088739935
55	0x3c2349c4	0.009966318
56	0xbea404e0	-0.3203497
57	0xbe960d8b	-0.29307207
58	0xbea00fb0	-0.3126197
59	0xbe92442f	-0.28567645
60	0xbc48b097	-0.012249134
61	0x3d107bc6	0.03527429
62	0x3db1f4e4	0.08689287
63	0xbce35ce1	-0.027754249
64	0x3d193371	0.037402574
65	0xbe6ccf00	-0.23125839
66	0x3db0f288	0.08640009
67	0xbd2f3e07	-0.042783763
68	0xbcc2aa70	-0.023762912
69	0xbe34041c	-0.17579693
70	0x3d21367d	0.039358605
71	0x3db09e72	0.08623971
72	0xbc861b79	-0.016370522
73	0xbe2fadc2	-0.17156127
74	0x3dd14333	0.10217895
75	0x3e2b78e1	0.1674533
76	0xbe6044fd	-0.21901317
77	0xbe614a63	-0.22001033
78	0xbdf0b0d5	-0.11752478
79	0xbe4a2b39	-0.1974305
80	0x3d8ec13a	0.06970449
81	0x3e058879	0.13040341
82	0x3e0ba5dd	0.1363749
83	0x3e0c7a81	0.13718607
84	0x3d67a7eb	0.056556623
85	0xbe01b40a	-0.12666336
86	0x3e86e6c8	0.26347947
87	0x3d84a88f	0.064774625
88	0x3dde1149	0.10843141
89	0xbe49882e	-0.19680855
90	0x3e29f818	0.16598547
91	0x3e0ab360	0.13544989
92	0x3e3a61e4	0.18201405
93	0xbe75d3dc	-0.24006599
94	0x3df0f48d	0.11765394
95	0x3e58a93e	0.21158311
96	0xbe88b7be	-0.26702684
97	0xbe824780	-0.25445175
98	0x3e62c152	0.22144058
99	0xbe7e8a90	-0.24857545
100	0xbafa8928	-0.0019114362
101	0x3c7d2aef	0.015452131
102	0x3c670da8	0.014102377
103	0x3e24ccfb	0.16093819
104	0x3c0ac3cd	0.008469534
105	0xbd523cff	-0.0513277
106	0x3c367b49	0.011137792
107	0x3c2a0af5	0.010378589
108	0x3db1cb20	0.08681321
109	0xbe0db541	-0.13838674
110	0xb991e59a	-0.00027827622
111	0x3d19daf1	0.037562314
112	0x3e17a834	0.14810258
113	0xbe3745b5	-0.17897685
114	0x3d10c94d	0.035348225
115	0x3d350ed6	0.0442036
116	0xbe5ac396	-0.21363673
117	0xbe4e0f54	-0.20123035
118	0x3e87ca54	0.26521552
119	0xbe46a1ca	-0.19397655
120	0x3c765e3a	0.015037114
121	0xbd512e90	-0.051069796
122	0xbd49809d	-0.04919492
123	0xbb5c45bb	-0.0033610899
124	0x3c80b94d	0.015713358
125	0xbe289a9a	-0.16465226
126	0xbde71dca	-0.11284979
127	0x3da44067	0.08020096
128	0xbc5bc0a7	-0.013412631
129	0xbe625d72	-0.22105959
130	0xbd892040	-0.06695604
131	0xba434933	-0.0007449567
132	0xbd776b22	-0.060404904
133	0xbe85febd	-0.26170912
134	0xbcbcf27d	-0.023064846
135	0xbcb5bb6a	-0.022184093
136	0xbe9874d2	-0.29776627
137	0xbe955861	-0.2916899
138	0x3e049cf9	0.12950505
139	0xbe90e476	-0.28299302
140	0xbd0a5347	-0.033770826
141	0x3ca7b5fa	0.020472515
142	0x3c234ba8	0.009966768
143	0xbd588e76	-0.052870236
144	0xbcb70675	-0.022341946
145	0xbe9bfd83	-0.30466852
146	0x3d7b19de	0.061303966
147	0x3c550400	0.013001442
148	0xbd8d50e4	-0.06900194
149	0xbe085550	-0.13313794
150	0xbbf65fce	-0.007518745
151	0xbc8dabbc	-0.017293803
152	0xbe0f9cac	-0.1402461
153	0xbe83e8c7	-0.25763533
154	0x3a89cc6e	0.0010513195
155	0x3c5fe36f	0.013665064
156	0xbe8f4776	-0.27984208
157	0xbe81b2f4	-0.25331843
158	0xbe1a0e3a	-0.1504449
159	0xbe7ec642	-0.24880317
160	0x3df0895c	0.11744949
161	0x3d962160	0.073305845
162	0x3da2fff0	0.079589725
163	0xbd2a9626	-0.0416471
164	0x3d39d4b8	0.04536888
165	0xbe881397	-0.26577446
166	0x3e8f09e1	0.27937225
167	0x3e0ea1a1	0.13928844
168	0x3c2658a6	0.010152971
169	0xbe2a0774	-0.16604406
170	0x3db7c867	0.089737706
171	0x3d6acf0c	0.05732636
172	0x3c3bfd6f	0.0114739975
173	0xbe960fb3	-0.29308853
174	0x3ce220f9	0.027603613
175	0x3ddaff45	0.1069322
176	0xbea38b1c	-0.3194207
177	0xbe972ced	-0.29526463
178	0x3ae37c4d	0.001735577
179	0xbe99b63c	-0.30021846
180	0x3bee3218	0.0072691552
181	0x3d08c35b	0.03338943
182	0x3db9f0f2	0.0907916
183	0xbda8f00e	-0.08248912
184	0x3db8a004	0.090148956
185	0xbed4b105	-0.41541305
186	0x3e002c10	0.12516809
187	0x3dd899a7	0.10576182
188	0xbd999ed6	-0.07500999
189	0xbe80649e	-0.25076765
190	0x3ca15a84	0.019696482
191	0x3db8b499	0.09018821
192	0xbd4a3318	-0.049365133
193	0xbec6638c	-0.38747823
194	0x3dc8c4b5	0.09803144
195	0x3dcb0d72	0.09914674
196	0xbee065d5	-0.43827692
197	0xbec6e6df	-0.38848016
198	0xbe2098af	-0.15683244
199	0xbecf4a72	-0.40486485
200	0x3d78d850	0.060753167
201	0xbce55257	-0.027993364
202	0x3d956884	0.072953254
203	0xbde1feaf	-0.11034905
204	0x3d5a2f98	0.053268045
205	0xbe949261	-0.29017928
206	0x3c15774f	0.009122684
207	0x3d965ce4	0.07341936
208	0xbe1cddac	-0.15318936
209	0xbe6cdef8	-0.23131931
210	0x3d4236eb	0.047415655
211	0x3dbc5c4d	0.091972925
212	0xbdcdac08	-0.10042578
213	0xbe81dfc2	-0.25366026
214	0x3d9875fb	0.07444378
215	0x3d8b42f7	0.06799882
216	0xbe8dd1b1	-0.27699044
217	0xbe8cd2b8	-0.27504516
218	0xbe2c959d	-0.16853948
219	0xbe8cc119	-0.27491072
220	0x3d3408f8	0.043953866
221	0xbcb77f82	-0.022399668
222	0x3d9893b7	0.07450049
223	0x3c75b4a4	0.014996681
224	0xbc6d4dba	-0.0144838635
225	0xbe62747c	-0.22114748
226	0xbda73211	-0.08163846
227	0xbcd37aab	-0.025815329
228	0xbc7693aa	-0.015049854
229	0xbe835bfa	-0.2565611
230	0x3c3dd12f	0.011585518
231	0x3cf3c663	0.029757684
232	0x3d65a38d	0.056064177
233	0xbe939922	-0.2882777
234	0x3d0912b7	0.033465113
235	0x3db74854	0.08949342
236	0xbe9c012d	-0.30469647
237	0xbe9de3d0	-0.3083787
238	0x3d3ba03e	0.045807116
239	0xbe975a18	-0.29560924
240	0x3db95c56	0.09050815
241	0xbd0fd246	-0.03511264
242	0x3dcec738	0.10096592
243	0xbdb57a9b	-0.08861276
244	0x3d535cdc	0.05160223
245	0xbe4104f6	-0.18849549
246	0x3d9770c4	0.07394555
247	0x3db71a7f	0.089406006
248	0xbd9be5ff	-0.07612228
249	0xbe8db1ee	-0.27674812
250	0x3d5bf9b5	0.053704936
251	0x3dd4c363	0.103888296
252	0xbc75ad8c	-0.01499499
253	0xbe8cef6b	-0.2752641
254	0x3d8a714c	0.06759891
255	0x3db2880a	0.08717354

loss.picnn.flows.0.icnn.Wczs.1.bias f4 [20]
0	0x3e907ac3	0.2821866
1	0x3ebf09ca	0.37312156
2	0x3ea8f9c5	0.3300306
3	0x3e60b47d	0.21943851
4	0x3e86ff9d	0.26366892
5	0x3e6203fc	0.22071832
6	0x3e9efc85	0.31052032
7	0x3e95fcae	0.29294342
8	0x3ea3f46a	0.3202241
9	0x3ee36ca3	0.4441882
10	0x3e8ed840	0.2789936
11	0x3ea15359	0.31508902
12	0x3e94c771	0.29058412
13	0x3e95156b	0.29117903
14	0x3ea7b2ee	0.327537
15	0x3e1a8053	0.15088014
16	0x3e09d94a	0.13461795
17	0x3ea7b868	0.32757878
18	0x3e179d87	0.14806186
19	0x3ebb53cf	0.36587378

loss.picnn.flows.0.icnn.Wcxs.0.weight f4 [6, 20]
0	0x3c8ac823	0.016941136
1	0xbd0d82f1	-0.034548704
2	0xbc55d42f	-0.013051077
3	0x3ce7d4db	0.02829974
4	0x3c8fc60f	0.017550496
5	0xbd914a80	-0.07094288
6	0x3bbfd3fd	0.0058541284
7	0x3ce92b09	0.028462904
8	0x3dce6179	0.10077185
9	0x3c90ce28	0.017676428
10	0xb9450242	-0.00018788225
11	0x3bf478c9	0.007460688
12	0x3cc4c46b	0.02401944
13	0xbe11f413	-0.14253263
14	0xbca5c417	-0.020235104
15	0xbbb1ef4c	-0.0054301377
16	0xbe3316a9	-0.17489113
17	0xbe0472d6	-0.12934431
18	0x3da14d66	0.07876091
19	0xbe159fa3	-0.14611678
20	0xbd0b6c2f	-0.03403872
21	0xbcb9fcf4	-0.022703625
22	0xbda5b5a7	-0.08091288
23	0xbd5b5959	-0.053552005
24	0x3d9b5fe5	0.0758665
25	0xbe126406	-0.14295968
26	0xbca57822	-0.020198885
27	0x3c448cd8	0.01199647
28	0x3d9b71f4	0.07590094
29	0x3d2d2048	0.042267114
30	0xbce22bc2	-0.027608756
31	0xbc8bc231	-0.017060371
32	0x3b7c164c	0.0038465438
33	0xbcaa7f43	-0.020812636
34	0x3a90c152	0.0011043942
35	0xbd12d3cd	-0.03584652
36	0xbd831d94	-0.06402126
37	0xbd262cce	-0.040570073
38	0xbd4f0bee	-0.050548486
39	0xbd017641	-0.031606916
40	0x3b5267a7	0.0032105239
41	0xbd527f67	-0.05139103
42	0xbd114af8	-0.035471886
43	0xbd2222e9	-0.039584074
44	0x3d0b6095	0.034027655
45	0xbd814c37	-0.06313365
46	0xbd4fe7f1	-0.050758306
47	0x3cdd5c8f	0.027021674
48	0xbd00f7c8	-0.031486303
49	0x3d71f8bb	0.0590751
50	0xbd0ffdcd	-0.035154153
51	0x3c9fbd6d	0.019499505
52	0xbc6be696	-0.014398238
53	0xbc98cb0c	-0.018651508
54	0xbc4416eb	-0.011968355
55	0x3b622f51	0.0034513066
56	0xbce4cd20	-0.027929842
57	0xbb9f2cea	-0.004857649
58	0xbd5a2d0f	-0.053265627
59	0xbc8667df	-0.016406951
60	0xbd82ad9d	-0.0638077
61	0xbddbdbaf	-0.10735261
62	0xbd2e0801	-0.042488102
63	0xbe1a3450	-0.15059018
64	0x3cc10808	0.0235634
65	0xbdde3b11	-0.1085111
66	0xbc2855be	-0.010274349
67	0xbdb00fce	-0.085967645
68	0x3d7032f3	0.05864234
69	0x3c7414e7	0.014897562
70	0xbdac22e0	-0.084050894
71	0xbd2844d1	-0.041081253
72	0xbc37d71d	-0.011220721
73	0xbd7f10f6	-0.062272035
74	0xbe0791e2	-0.13239244
75	0xbd982105	-0.07428173
76	0xbda3781d	-0.07981894
77	0xbdba9ed2	-0.09112324
78	0xbe047596	-0.1293548
79	0xbd123a53	-0.035700154
80	0xbc9943fe	-0.018709179
81	0xbcb5fd4d	-0.02221551
82	0xbdab9774	-0.08378497
83	0xbc33de4a	-0.010978291
84	0xbd035592	-0.032064028
85	0xbbb0b77b	-0.0053929663
86	0xbced8a19	-0.028996514
87	0xbc9bb268	-0.01900597
88	0xbd719cee	-0.05898755
89	0x3d9ee412	0.07758345
90	0x3cefb056	0.029258888
91	0xba9806e8	-0.0011598738
92	0xbbbe74d3	-0.0058122664
93	0xbda65161	-0.081209905
94	0xbcc71cee	-0.024305787
95	0xbb616789	-0.0034393987
96	0xbd8582a5	-0.06519059
97	0xbd44b4c8	-0.04802397
98	0x3d0dfee2	0.034666903
99	0xbd66f326	-0.05638423
100	0xbb944b29	-0.0045255614
101	0xbe0fb036	-0.14032063
102	0xbc7d1e25	-0.015449082
103	0xbdb74d9c	-0.0895035
104	0xbdac320e	-0.08407985
105	0xbd898e56	-0.067166016
106	0xbcf666c1	-0.030078294
107	0x3a0c2002	0.00053453457
108	0xbd5ec9f6	-0.054391824
109	0x3ca4b745	0.020106921
110	0xbdb4193d	-0.08793876
111	0xbd821f9e	-0.06353687
112	0xbcbb75b7	-0.02288328
113	0xbdb69ddb	-0.08916827
114	0xbe169a12	-0.1470721
115	0xbbb05101	-0.00538075
116	0xbde0b9dc	-0.1097295
117	0xbd9bc00e	-0.07604991
118	0xbcc36266	-0.023850631
119	0xbd99965d	-0.07499383

loss.picnn.flows.0.icnn.Wcxs.0.bias f4 [6]
0	0x3e399959	0.18124904
1	0x3d8fd858	0.07023686
2	0x3d121fb6	0.035674773
3	0x3da4c3cc	0.08045158
4	0x3d6520d9	0.05593953
5	0x3de0ab65	0.10970191

loss.picnn.flows.0.icnn.Wcxs.1.weight f4 [6, 20]
0	0xbdd25428	-0.10269958
1	0xbccf029c	-0.025269799
2	0xbcd9f68e	-0.026606824
3	0xbc336e3a	-0.010951573
4	0x3d224c25	0.0396234
5	0x3cbb3f03	0.022857195
6	0x3e16824b	0.1469814
7	0xbdad03f8	-0.084480226
8	0x3d3e5b7b	0.04647396
9	0x3d12b730	0.035819232
10	0x3b56597e	0.003270715
11	0xbd4a97d4	-0.0494612
12	0xbd855e51	-0.0651213
13	0x3da1df72	0.07903947
14	0x3b243c79	0.0025060459
15	0xbd23b285	-0.03996517
16	0x3dd9574f	0.10612356
17	0x3db889d2	0.09010662
18	0xbd95c674	-0.073132426
19	0x3dbe35b5	0.092875876
20	0xbe05f842	-0.13082984
21	0x3d85036d	0.06494794
22	0xbd64cd38	-0.055859774
23	0x3e54c835	0.20779498
24	0xbb67c897	-0.0035367364
25	0x3dd766e1	0.105176695
26	0x3c6a5aef	0.014303907
27	0xbe1f1f91	-0.15539385
28	0x3e1582c8	0.1460067
29	0x3bd30207	0.0064394507
30	0xbdca0f12	-0.09866156
31	0xbd0d7433	-0.034534644
32	0x3e851eb2	0.2599998
33	0x3dc125d6	0.09431045
34	0x3c0b6e9e	0.00851026
35	0x3cd1a245	0.025590071
36	0x3e0285a4	0.12746292
37	0x3da7190e	0.08159076
38	0x3e7a0d19	0.24419059
39	0x3db7b704	0.08970454
40	0xbe4e8d10	-0.20170999
41	0x3de6524b	0.11246165
42	0xbdda5da1	-0.106623895
43	0x3e668aac	0.22513837
44	0xbd4be7c6	-0.049781583
45	0x3de6b79e	0.11265491
46	0xbcc25690	-0.023722917
47	0xbe4150c6	-0.18878469
48	0x3e194379	0.14967145
49	0x3d3e83f3	0.046512555
50	0xbd24a7e9	-0.040199194
51	0xbd68c0b8	-0.056824416
52	0x3e9effed	0.3105463
53	0x3df68b12	0.12038244
54	0x3d46430c	0.048403785
55	0x3bcc0e3e	0.0062272837
56	0x3e14898c	0.14505595
57	0x3dcc4f23	0.09976032
58	0x3ecb6ecb	0.39732966
59	0x3dca29a3	0.09871223
60	0xbd9e9f5f	-0.077452414
61	0x3de0966d	0.109661914
62	0xbd2c7ba4	-0.0421101
63	0x3e47e294	0.19520026
64	0xbd00a537	-0.03140756
65	0x3e33ecaa	0.17570749
66	0x3cb7ca57	0.02243535
67	0xbd8577f7	-0.06517022
68	0x3e27c754	0.16384631
69	0x3d2faead	0.042891193
70	0xbcf747c1	-0.030185582
71	0xbd79e63b	-0.06101058
72	0x3e0e6f04	0.13909537
73	0x3e0e538d	0.1389906
74	0x3d362e34	0.044477656
75	0xbc81af03	-0.015830522
76	0x3e1a2f2e	0.1505706
77	0x3ddf4161	0.10901142
78	0x3e7f56b1	0.24935414
79	0x3e1058f1	0.14096428
80	0x3d5b76fa	0.05358026
81	0xbce4afe7	-0.027915908
82	0xbc632a8a	-0.013865123
83	0x3d40c778	0.04706523
84	0x3d69e64d	0.057104398
85	0x3e037194	0.12836295
86	0x3c371f7e	0.011176942
87	0x3dbb45d0	0.09144175
88	0x3cee048f	0.029054908
89	0x3db696da	0.089154914
90	0x3ce4fca3	0.027952498
91	0x3c5cd9b0	0.013479635
92	0xbdd7124e	-0.10501538
93	0x3e391471	0.18074204
94	0x3bba0f61	0.005678103
95	0xbc5b3e8e	-0.013381613
96	0x3e2fea15	0.17179139
97	0x3e33b0f5	0.17547973
98	0xbd11d812	-0.03560645
99	0x3df1e4d4	0.118112236
100	0x3c41a3b5	0.011818816
101	0xbd4e1add	-0.050318588
102	0x3d28a419	0.04117212
103	0xbc5aba6e	-0.013350112
104	0xbd1e39d6	-0.038629375
105	0x3c9cca9f	0.019139586
106	0x3c4fd5e9	0.0126852775
107	0xbd6e1b9b	-0.058131795
108	0xbc4f66fe	-0.012658833
109	0x3dbf8c10	0.09352887
110	0x3d7a099c	0.06104432
111	0x3b2da340	0.002649501
112	0xbd3a4c93	-0.045483183
113	0x3e109205	0.14118202
114	0xbcc38424	-0.02386672
115	0x3d58af2b	0.05290143
116	0x3e17b55f	0.14815281
117	0x3dfdf76f	0.1240071
118	0xbdc72ce4	-0.09725359
119	0x3dd9ac1a	0.10628529

loss.picnn.flows.0.icnn.Wcxs.1.bias f4 [6]
0	0xbde713c6	-0.11283068
1	0xbe096514	-0.13417464
2	0xbe19dbc5	-0.15025242
3	0xbe0ff8c5	-0.14059742
4	0xbe21935e	-0.15778872
5	0xbe17eca4	-0.14836365

loss.picnn.flows.0.icnn.Wccs.0.weight f4 [20, 20]
0	0xbe7e250f	-0.24818824
1	0xbeb1f93c	-0.34760463
2	0xbe9c0957	-0.30475876
3	0xbe182d92	-0.14861134
4	0xbd914dea	-0.07094939
5	0x3ebf635a	0.37380487
6	0xbe0649f2	-0.13114145
7	0xbe971450	-0.29507685
8	0xbe0307e0	-0.12795973
9	0x3e6807f6	0.22659287
10	0xbebd72f8	-0.37001777
11	0xbebde8e6	-0.3709175
12	0xbe4ee3ad	-0.20204039
13	0x3e36a754	0.17837268
14	0xbeda0734	-0.4258362
15	0xbe3f057f	-0.1865444
16	0x3ec53131	0.38514093
17	0x3dd5b064	0.104340345
18	0xbd823a9c	-0.06358835
19	0x3e336b53	0.1752141
20	0xbe28dffd	-0.16491695
21	0x3cc73ff6	0.024322491
22	0x3d24059e	0.04004442
23	0x3d8d8678	0.069104135
24	0xbe8a8fec	-0.2706293
25	0x3eaab21d	0.33339015
26	0x3ef28051	0.47363523
27	0xbe4d1893	-0.20028906
28	0x3e5d4bd9	0.21610965
29	0x3eb0ff2f	0.3456969
30	0xbe8d6018	-0.27612376
31	0xbe54777d	-0.20748706
32	0xbb423af1	-0.0029637183
33	0x3ea142b0	0.3149619
34	0xbe2fd8ac	-0.17172498
35	0x3dd62b36	0.104574606
36	0x3e931d9f	0.28733537
37	0x3eb38c96	0.35068196
38	0x3e8e5dec	0.27806032
39	0x3edb2e5d	0.4280881
40	0xbc9a1ae4	-0.01881165
41	0xbe538d2f	-0.20659326
42	0xbd9e92b8	-0.07742828
43	0xbea9da73	-0.33174476
44	0xbdfbd20b	-0.12295922
45	0x3b82c8c6	0.003991219
46	0x3dc695c1	0.09696532
47	0x3daa0b7c	0.08302972
48	0x3ddc4c44	0.10756734
49	0x3ebcdc9c	0.36887062
50	0xbe8469c4	-0.25861943
51	0xbcbbd310	-0.02292779
52	0xbe88a4a3	-0.26688108
53	0x3e3f2bd2	0.1866906
54	0xbeb00a9b	-0.3438309
55	0xbe366009	-0.17810072
56	0x3e12548b	0.14290063
57	0x3e46a182	0.19397548
58	0xbf24f65d	-0.6443842
59	0x3e75fc6d	0.24022074
60	0xbea007b7	-0.31255886
61	0xbe378abb	-0.17924015
62	0xbe8a1c96	-0.26974934
63	0xbe28057f	-0.16408347
64	0xbe9b7d30	-0.30368948
65	0xbba4e01e	-0.0050315997
66	0xbe9a4b35	-0.30135503
67	0xbe5d326f	-0.2160127
68	0x3e439b7a	0.19102278
69	0x3d5b43c0	0.05353141
70	0xbe40eff0	-0.18841529
71	0xbe87cd9d	-0.26524058
72	0xbe6100b3	-0.21972923
73	0x3e36c70c	0.17849368
74	0xbe899e2a	-0.26878482
75	0xbeb469df	-0.35237023
76	0xbcd6a0da	-0.026199747
77	0x3cba12ad	0.022713983
78	0xbde53179	-0.11191077
79	0x3e97452e	0.29544967
80	0xbe67d05a	-0.22638074
81	0xbe8358de	-0.25653738
82	0xbebab4f2	-0.36466175
83	0xbe0a68ab	-0.1351649
84	0xbe9f7167	-0.31141207
85	0x3eaca1da	0.33717233
86	0xbe6a57d1	-0.22885062
87	0xbea20772	-0.31646305
88	0x3d9c65f4	0.076366335
89	0x3d718bbd	0.058971155
90	0xbebb6268	-0.36598516
91	0xbe5ebaa2	-0.21750882
92	0xbe5d1920	-0.21591616
93	0x3e5b7bf6	0.21434006
94	0xbdba15c2	-0.09086181
95	0xbe9443ea	-0.28958064
96	0xbc651349	-0.013981649
97	0x3e568851	0.20950438
98	0xbe64044c	-0.22267264
99	0x3ea4636c	0.32107103
100	0xbe9d2a6b	-0.30696425
101	0xbe4659c6	-0.19370183
102	0xbeb58aee	-0.35457557
103	0xbe4ef23c	-0.20209593
104	0xbe411af4	-0.18857938
105	0x3e7e63d7	0.24842773
106	0xbd8ea94f	-0.06965887
107	0xbe572220	-0.21009111
108	0xbc241308	-0.010014303
109	0x3e3b1872	0.18271044
110	0xbe3a1b66	-0.18174514
111	0xbe8ecec6	-0.2789213
112	0xbe1fa805	-0.15591438
113	0x3cfd2cbc	0.03090512
114	0xbeebfd2d	-0.46091595
115	0xbd3be9b7	-0.045877185
116	0x3d8c6675	0.0685548
117	0x3ea780a1	0.32715324
118	0xbdec37b9	-0.11534066
119	0x3e8ac6e0	0.27104855
120	0xbdb8828c	-0.09009275
121	0xbed8a223	-0.423112
122	0xbe8c3ce3	-0.27390203
123	0xbd9bd578	-0.07609075
124	0xbe6e0d32	-0.23247221
125	0x3d985365	0.07437781
126	0xbe3354b4	-0.1751278
127	0xbee29065	-0.4425079
128	0xbc826915	-0.015919248
129	0x3eb5ec72	0.35531956
130	0xbe718bec	-0.23588532
131	0xbe831bbd	-0.256071
132	0xbe769cac	-0.24083203
133	0x3ed494de	0.41519827
134	0xbe269d8f	-0.16271041
135	0xbe08d595	-0.13362725
136	0x3e192362	0.14954904
137	0x3e236fd2	0.15960625
138	0x3c7d5248	0.015461512
139	0x3ebf5109	0.37366512
140	0x3bd98c8e	0.00663907
141	0xbe837eea	-0.25682765
142	0x3e02cb3b	0.12772839
143	0xbe351bba	-0.17686358
144	0xbdd7aaba	-0.105306104
145	0x3e846428	0.25857663
146	0x3e0e12c4	0.13874346
147	0xbe4e845a	-0.20167676
148	0x3d9edaf3	0.07756605
149	0x3e46c98f	0.19412826
150	0x3d6894b6	0.056782447
151	0xbea27266	-0.31727904
152	0xbea018de	-0.31268972
153	0x3d6020c9	0.054718766
154	0xbe838b3c	-0.25692165
155	0x3c6337f7	0.0138683235
156	0x3d884c46	0.06655173
157	0x3d8e7852	0.06956543
158	0xbe82a82d	-0.25518933
159	0x3eae9da0	0.34104633
160	0xbe6941f2	-0.22779062
161	0xbe9f93e0	-0.31167507
162	0xbebb7938	-0.3661592
163	0xbdab89a5	-0.08375863
164	0xbe26d8df	-0.16293667
165	0x3e0fed85	0.1405545
166	0xbde40e59	-0.11135549
167	0xbeb5b8c9	-0.35492542
168	0xbe106abb	-0.14103214
169	0x3eb0d3fe	0.34536737
170	0xbe0ee9a2	-0.13956311
171	0xbe9b3136	-0.30310982
172	0xbea432c8	-0.32069993
173	0x3ec65aea	0.38741237
174	0xbe89a4b7	-0.2688348
175	0xbea4b99e	-0.32172865
176	0x3dd8f2fa	0.10593219
177	0x3e2acefd	0.16680522
178	0xbb2b2318	-0.0026113447
179	0x3e81de80	0.25365067
180	0xbd8befed	-0.068328716
181	0xbe9c1fec	-0.30493104
182	0xbd9b1755	-0.075728096
183	0xbe9a5e23	-0.30149946
184	0xbe335a0f	-0.17514823
185	0xbd027248	-0.03184727
186	0xbe874be9	-0.26425102
187	0xbe8c8bb4	-0.27450335
188	0xbe998fb7	-0.29992458
189	0x3e56294e	0.20914194
190	0xbe61f7de	-0.2206721
191	0xbe777660	-0.2416625
192	0xbf13125f	-0.5744991
193	0x3e8b2b6b	0.27181563
194	0xbe9c2962	-0.30500323
195	0xbe08f046	-0.13372907
196	0x3e617f95	0.22021325
197	0xbc21b10c	-0.009868871
198	0xbec537b1	-0.38519052
199	0x3e6a80d9	0.22900714
200	0x3d7600ef	0.060059484
201	0xbe840def	-0.2579188
202	0x3e440e06	0.19145975
203	0xbeae14bd	-0.34000197
204	0xbe8b7a55	-0.2724177
205	0x3eb4198e	0.35175747
206	0x3e115147	0.14191161
207	0xbddd39f5	-0.1080207
208	0x3ddf6ae8	0.109090626
209	0x3e685a54	0.22690707
210	0x3e039ca8	0.12852728
211	0x3daef0ad	0.08541999
212	0xbe8ff566	-0.28116912
213	0x3e6b2050	0.22961545
214	0xbe2515dd	-0.16121621
215	0xbd0a6341	-0.033786062
216	0x3f05720b	0.5212714
217	0x3ebeec16	0.37289494
218	0xbec603ca	-0.38674766
219	0x3eeca193	0.4621702
220	0xbd0837cb	-0.033256333
221	0xbece487d	-0.4028968
222	0x3eab269e	0.334279
223	0xbdf99e37	-0.1218838
224	0xbe93a83f	-0.288393
225	0x3eb9694e	0.36213154
226	0x3eb4ed16	0.35337132
227	0xbea90d7d	-0.33018103
228	0xbd242f4e	-0.040084176
229	0x3eb66556	0.35624188
230	0xbe254369	-0.16138996
231	0x3d9c15a7	0.07621317
232	0xbd8805b1	-0.066417105
233	0x3eac915a	0.33704644
234	0xbc819bb2	-0.015821312
235	0x3e46da80	0.19419289
236	0x3eccc34e	0.39992756
237	0x3e5a6ec4	0.21331316
238	0xbe97dfde	-0.29662985
239	0x3ef7527a	0.48305112
240	0xbe8bebb5	-0.27328268
241	0xbe837d8f	-0.2568173
242	0xbedabb4a	-0.42721015
243	0x3e290b6b	0.16508262
244	0xbe613ab3	-0.21995048
245	0x3ebb98c7	0.36639997
246	0xbea6143a	-0.32437307
247	0xbedab376	-0.42715043
248	0x3d0bd50e	0.03413873
249	0x3ed08fb9	0.40734652
250	0xbeab665e	-0.33476537
251	0xbea76069	-0.32690743
252	0xbdc7d87d	-0.09758089
253	0x3ed29321	0.41127875
254	0xbe93e11d	-0.28882685
255	0xbdbdc8be	-0.09266804
