src/model/lightning_logs/lightning_logs/version_0/checkpoints/epoch=45-step=2300.ckpt (torch, 738878 bytes, 1174 tensors)

input_embeddings.embeddings.month.weight f4 [12, 6]
0	0xc089d14b	-4.3067985
1	0x3d7ab251	0.061205212
2	0xbf05d3c2	-0.5227624
3	0x4014085b	2.31301
4	0x3ea1229e	0.31471723
5	0x3f5e48d2	0.86829865
6	0x3e8a3d8d	0.27000085
7	0x4008c693	2.13712
8	0x3f97078d	1.1799179
9	0x3d94aa7a	0.07259078
10	0xbf82cb61	-1.0218316
11	0x3f455c04	0.7709353
12	0x3f5612de	0.8362254
13	0xbfb668b0	-1.4250698
14	0x3f55d5df	0.83529466
15	0x3ec4b517	0.3841941
16	0x3ecaeb2f	0.39632556
17	0x3fc9eacd	1.577478
18	0x3f306ff3	0.6892082
19	0xc0422d47	-3.0340135
20	0xbf2578e0	-0.64637566
21	0x3f0e455a	0.5557457
22	0xbec5296a	-0.3850816
23	0xbfa2bcd9	-1.2713882
24	0xbf77e713	-0.96836966
25	0x3fce5770	1.6120434
26	0x4007da64	2.1227045
27	0xbff5d154	-1.9204507
28	0x3ead8bdf	0.33895776
29	0x3f495def	0.78658956
30	0x3f61d84c	0.8822067
31	0x3ed977ed	0.4247431
32	0x3f7547bc	0.9581258
33	0xc01cec71	-2.4519312
34	0x3ff8082d	1.9377495
35	0xc006585a	-2.0991426
36	0x3f58a8e9	0.84632736
37	0x3f98912d	1.1919304
38	0x3e99aa6e	0.3001284
39	0xc032830e	-2.789249
40	0xbef78d52	-0.48350006
41	0x3f3a93e7	0.7288193
42	0x3fac44a2	1.3458445
43	0xbf0cd7e0	-0.550169
44	0xbf850337	-1.0391606
45	0xc00b272d	-2.174266
46	0x3f0e2c6c	0.5553653
47	0x3dc3a17d	0.09552286
48	0xbd924a1a	-0.0714304
49	0x3df971b4	0.1217989
50	0x3eb1450f	0.34623
51	0xbf8cd21d	-1.1001621
52	0x3be53ab0	0.0069955215
53	0x3fbff20b	1.4995741
54	0xbf1f1416	-0.62140024
55	0x3f8ccc31	1.0999814
56	0xbeed8670	-0.4639163
57	0xbec7ed3e	-0.3904819
58	0x3f8e3470	1.1109753
59	0x3fe5b2ad	1.7945153
60	0x3e98c02b	0.29834113
61	0x3e5f5ca5	0.21812685
62	0xc01e4d4d	-2.473468
63	0x3e4caaaa	0.19986978
64	0xc00dc0f2	-2.2149014
65	0xbfe5b44c	-1.7945647
66	0xbe0fcae2	-0.14042237
67	0x4010276e	2.2524066
68	0xbf11905f	-0.5686092
69	0x3fa14a86	1.2600868
70	0xbf4bf79e	-0.7967471
71	0xbe2d7405	-0.16938789

input_embeddings.embeddings.hour_of_day.weight f4 [24, 9]
0	0x40170fd9	2.3603423
1	0x3f119aba	0.5687672
2	0x3f258459	0.6465507
3	0x3f8190bf	1.0122298
4	0xbfc7c6be	-1.5607526
5	0x3fbc663e	1.4718702
6	0x3e46ce8c	0.19414729
7	0xbdc3fd20	-0.09569764
8	0x3e8a533e	0.27016634
9	0x3fbb7509	1.4645091
10	0xbe27ee32	-0.16399458
11	0x3ee58d0a	0.44834167
12	0x3ffd588a	1.9792645
13	0x3e74b816	0.23898348
14	0xbf2b002a	-0.66797125
15	0x3f63032b	0.8867671
16	0x3fe39abc	1.7781596
17	0x3f5833c9	0.8445402
18	0xbe9fc44f	-0.3120446
19	0xbe5f52ba	-0.21808901
20	0x3f1c58c2	0.61072934
21	0xbebd2ef5	-0.36949888
22	0x3ecbbac6	0.39790934
23	0xbee14473	-0.43997535
24	0x405aab81	3.4167178
25	0x3fee2ca6	1.8607376
26	0xbef339ad	-0.4750494
27	0xbf2d487c	-0.6768873
28	0x3e2c26a6	0.16811618
29	0xbf1e853a	-0.6192204
30	0xbe7567fe	-0.23965451
31	0xbfb97e13	-1.44916
32	0xbec62ca7	-0.38705942
33	0xbbced1e0	-0.00631164
34	0xbf1f54ab	-0.6223857
35	0xbfbc50de	-1.4712179
36	0xbf5b84d6	-0.85749567
37	0xbe21f9f9	-0.15818013
38	0x400172eb	2.022639
39	0x3e63ca0c	0.22245044
40	0xbeb8d567	-0.36100313
41	0x3e3c9cf3	0.18419246
42	0xbf304b53	-0.68864936
43	0x3f882417	1.0636014
44	0x3f16b519	0.58870083
45	0x3e581dd2	0.21105126
46	0xbfe1a54f	-1.7628573
47	0x3ec0a064	0.37622368
48	0xbf11df38	-0.5698123
49	0xbf066052	-0.52490723
50	0xbf244196	-0.64162576
51	0x3f7bd747	0.9837536
52	0x3e96e13e	0.2946872
53	0xbf50da23	-0.8158285
54	0xbebdf7eb	-0.3710321
55	0x3eeb4986	0.4595453
56	0xbf0f4e06	-0.5597843
57	0xbd67388d	-0.056450415
58	0xbe317efe	-0.173336
59	0xbe6f88b6	-0.23391995
60	0x3e2512c3	0.16120438
61	0x3ea3b795	0.31976
62	0x3f96ae5c	1.177196
63	0x3e2cb1b3	0.16864662
64	0xbf4f1cd4	-0.80903363
65	0xbf849475	-1.0357805
66	0x3f875b90	1.0574818
67	0xbf731ec6	-0.9496883
68	0x3fe5d871	1.7956678
69	0xbffbda2b	-1.9675955
70	0x3f92d4de	1.1471212
71	0x3f8ef482	1.1168368
72	0xbc3e93ed	-0.011631948
73	0x3e6de201	0.23230745
74	0xbf5ee376	-0.8706583
75	0xbeb02c6b	-0.34408888
76	0xbf56ff58	-0.83983374
77	0xbe4ff867	-0.20309602
78	0x3fad28b0	1.3528042
79	0x3fc20647	1.5158166
80	0xbfcdbb39	-1.6072761
81	0x3fda6f75	1.7065264
82	0x3f88af2f	1.0678462
83	0xbed731bb	-0.4203013
84	0xbee72cd9	-0.45151404
85	0xbea9371e	-0.33049864
86	0x3e47d2df	0.19514035
87	0xbe844bc2	-0.2583905
88	0x3ef024cc	0.46903074
89	0x3f70b349	0.9402357
90	0x3fa04e6b	1.2523931
91	0xc0151654	-2.3294878
92	0x400d23ec	2.2053175
93	0x3f8498a3	1.0359081
94	0x3fab6002	1.3388674
95	0x3f9d742b	1.2301077
96	0x3fbb146d	1.4615608
97	0x3ee33959	0.4437969
98	0xbfb80a06	-1.4378059
99	0x3f94de65	1.163037
100	0x3f80ea33	1.0071472
101	0xbf2d4861	-0.67688566
102	0xbed0f046	-0.40808314
103	0x3c819288	0.015816942
104	0xbf754aea	-0.95817435
105	0xbedf3d5d	-0.43601504
106	0xbda70983	-0.08156111
107	0xbec70ad5	-0.38875452
108	0x3f98a3c9	1.1924983
109	0x3f3bba0c	0.7333076
110	0xbfaa7fe0	-1.3320274
111	0xbfa8ea98	-1.3196592
112	0xbed7be48	-0.4213736
113	0xbe052ddd	-0.13005777
114	0xbffaf9b7	-1.9607457
115	0x3de54df1	0.11196507
116	0xbfbc5e1a	-1.4716218
117	0xc031a1a3	-2.7754905
118	0x3eb8b389	0.36074474
119	0xbf7cc0ee	-0.9873189
120	0xbe8edcee	-0.2790293
121	0xbf861d76	-1.0477741
122	0x3f51d317	0.8196272
123	0xbe225039	-0.15850915
124	0x3f0180f6	0.50587404
125	0xbfa363b1	-1.2764798
126	0xbf288dcd	-0.6584137
127	0xbf2d6026	-0.67724836
128	0x3d113643	0.03545214
129	0xbed239ab	-0.41059622
130	0x3f64e43b	0.8941075
131	0x3f8e1323	1.109959
132	0x3efcc756	0.4937083
133	0x3fb4a8eb	1.411405
134	0xc018551c	-2.3801947
135	0xbf2360ce	-0.6381959
136	0xbfff027b	-1.9922632
137	0xbecaf194	-0.39637434
138	0xbf04db2d	-0.51896936
139	0xbf825ecc	-1.018518
140	0xc000d6cb	-2.01311
141	0x3f232b65	0.6373809
142	0x3f3ec891	0.7452479
143	0x3fa7802f	1.3085994
144	0x3f86b6e8	1.0524569
145	0x3dd46713	0.10371222
146	0x3d928b05	0.07155422
147	0x3e75e249	0.24012102
148	0xbf17866d	-0.5918949
149	0xbf8c101a	-1.0942414
150	0xbf22e3c7	-0.6362881
151	0x3f5df470	0.8670111
152	0x3f0f8a6a	0.5607058
153	0x400330c0	2.0498505
154	0xbf0841cd	-0.53225404
155	0xbf299645	-0.6624492
156	0x3f1af4d2	0.60529816
157	0xbe80c6d1	-0.25151685
158	0xbccf95fd	-0.025340075
159	0x3f7b59db	0.98183984
160	0xbf11bccd	-0.5692871
161	0x3f678da9	0.9045053
162	0x3fbb6324	1.463963
163	0x3fe2b66e	1.7711923
164	0xbf2023e7	-0.6255478
165	0x3c1ff92a	0.009763995
166	0xbd72f770	-0.059318006
167	0xbeb84d4b	-0.3599647
168	0xbf2f68d1	-0.6851931
169	0xbf80362b	-1.0016531
170	0x3f68a13d	0.9087103
171	0x40081122	2.1260457
172	0x3e892fee	0.2679438
173	0xbf4df68f	-0.80454344
174	0xbf12ae68	-0.5729737
175	0x3dcb320c	0.09921655
176	0xc01c10b1	-2.4385188
177	0xbfba59a1	-1.4558603
178	0xbfecabf1	-1.8489972
179	0xbf5520d4	-0.83253217
180	0xbf17dba2	-0.5931951
181	0x3f3a6329	0.72807556
182	0xbf6faf73	-0.9362709
183	0x3e3b41ce	0.18286821
184	0xbe27ed1c	-0.16399044
185	0xbe33e10d	-0.17566319
186	0xbfc792ef	-1.5591716
187	0x3f1d21e5	0.61379844
188	0xbea7bcfc	-0.3276137
189	0x3f7a6078	0.9780345
190	0x3f8d480c	1.1037612
191	0xbf9ece42	-1.2406695
192	0xbfb22991	-1.3918935
193	0xbfe61c54	-1.7977395
194	0x3df19104	0.11795238
195	0xbf884181	-1.064499
196	0xbf1c3441	-0.61017233
197	0x3ebcde1a	0.368882
198	0x3ee56ffa	0.44811994
199	0x3f90b06b	1.1303838
200	0xbf9d8b03	-1.2308048
201	0xbf8d865b	-1.1056627
202	0x3e17a2d8	0.14808214
203	0xbf312f02	-0.69212353
204	0x3f44cf79	0.7687908
205	0xbeda3fc4	-0.42626774
206	0x3ea8d6ea	0.32976466
207	0x3f4ed5b5	0.8079484
208	0xbe0f8e31	-0.14019085
209	0xbf95fc2a	-1.1717579
210	0xbeb66110	-0.35620928
211	0x3f85ee8f	1.0463427
212	0xbe66d25b	-0.22541182
213	0xbf7aa154	-0.9790242
214	0x3f0533be	0.5203208
215	0x3e33b3d0	0.17549062

input_embeddings.embeddings.day_of_week.weight f4 [6, 4]
0	0xbec36d24	-0.38169205
1	0x3f379f91	0.71727854
2	0x3e4417d4	0.19149715
3	0xbf58c398	-0.8467345
4	0xbd6cbc1c	-0.057796583
5	0xbf1215bc	-0.57064414
6	0xbf0ffa87	-0.5624165
7	0xbf9a5961	-1.2058526
8	0xbc26bc45	-0.010176723
9	0x3f50e25b	0.8159539
10	0xbee10697	-0.4395034
11	0x3b4548f7	0.0030103305
12	0xbf9750f9	-1.1821586
13	0x3f5b695b	0.85707635
14	0xbe53a72b	-0.20669238
15	0xc031ebb3	-2.780011
16	0x3e0d8229	0.13819183
17	0x3f8f1ea7	1.1181229
18	0xbf29bebc	-0.6630666
19	0x3f5e9559	0.86946636
20	0x3e2a2ff6	0.16619858
21	0x3ef1e42d	0.47244397
22	0xbfb734b3	-1.4312958
23	0x3e0eb299	0.13935317

input_embeddings.embeddings.week_of_month.weight f4 [6, 4]
0	0x3fe692fe	1.8013608
1	0xbef2d6bb	-0.4742945
2	0x3f0985ec	0.53719974
3	0xbe9ffec6	-0.31249064
4	0x3f39fe01	0.72653204
5	0x3f450cb9	0.7697254
6	0xbdc39075	-0.09549037
7	0x3e68403c	0.22680753
8	0x3ff0bdee	1.8807962
9	0x3f40e6eb	0.7535235
10	0x3f47f1fd	0.7810362
11	0x3f49c3f9	0.78814656
12	0x3f487f95	0.78319675
13	0xbfb12e3e	-1.3842237
14	0x3e8dee51	0.27720883
15	0xbec8f8e6	-0.39252394
16	0xbe628303	-0.2212029
17	0x3e7a8539	0.24464883
18	0xbef86cb4	-0.48520434
19	0x3f5b27fd	0.8560789
20	0xbfabe076	-1.3427875
21	0xbf00da68	-0.5033326
22	0x3e9f0a98	0.3106277
23	0xbe95a448	-0.292269

prescalers.encoder_length.weight f4 [8, 1]
0	0xbf77397a	-0.9657208
1	0x3e5bd3f0	0.21467566
2	0xbf0cc470	-0.5498724
3	0xbf2c3ef4	-0.6728356
4	0x3d474e20	0.04865849
5	0x3f2caa0e	0.6744698
6	0x3f0fb07e	0.5612868
7	0xbf1e6c2c	-0.6188381

prescalers.encoder_length.bias f4 [8]
0	0x3f18539b	0.5950257
1	0x3eba0a81	0.3633614
2	0xbf36b78f	-0.7137384
3	0xbec0039b	-0.3750275
4	0xbe84ad9c	-0.25913703
5	0xbf2add05	-0.667435
6	0xbf86fc9d	-1.0545841
7	0xbf4e4b9e	-0.8058413

prescalers.close_center.weight f4 [8, 1]
0	0x3f68b9b8	0.90908384
1	0xbe880a3c	-0.26570308
2	0x3dc496f0	0.095991015
3	0xbf54949a	-0.8303925
4	0xbe302358	-0.17200983
5	0x3ec1700c	0.37780797
6	0xbca60200	-0.020264626
7	0xbda0f0d0	-0.07858431

prescalers.close_center.bias f4 [8]
0	0xbe5070df	-0.20355557
1	0x3f11f727	0.5701775
2	0xbf569ae2	-0.8383008
3	0xbf4f8960	-0.8106899
4	0xbf177ef6	-0.591781
5	0x3f15a84b	0.5845992
6	0xbf278cbf	-0.65449136
7	0xbe23e95a	-0.16006985

prescalers.close_scale.weight f4 [8, 1]
0	0xbe0770f0	-0.13226676
1	0x3f16143c	0.58624625
2	0x3c0e6600	0.008691311
3	0x3e486fa8	0.19573843
4	0xbe8fd178	-0.280895
5	0x3f0b531e	0.544237
6	0xbeff6cc8	-0.4988768
7	0x3f4554d4	0.7708256

prescalers.close_scale.bias f4 [8]
0	0x3f5995ad	0.8499401
1	0xbf2f2414	-0.68414426
2	0xbf06f26b	-0.5271365
3	0xbecae7f1	-0.39630082
4	0xbea5e2a8	-0.32399487
5	0x3ebaa42c	0.36453378
6	0xbf007c4e	-0.50189674
7	0x3f611756	0.8792623

prescalers.time_idx.weight f4 [8, 1]
0	0xbda20660	-0.07911372
1	0xbf0f1a14	-0.5589917
2	0xbefe3d78	-0.49656272
3	0xbf6f411a	-0.9345871
4	0xbf1d56a8	-0.6146035
5	0x3e46cfa8	0.19415152
6	0x3e9aa888	0.30206704
7	0xbedcab94	-0.43099654

prescalers.time_idx.bias f4 [8]
0	0x3d6398cc	0.05556564
1	0x3e8d4fa1	0.27599815
2	0x3d9ce26d	0.07660375
3	0xbe31e541	-0.1737261
4	0xbeefa4b1	-0.46805337
5	0x3f76dae7	0.9642777
6	0xbd9029bf	-0.070392124
7	0x3efb0476	0.4902684

prescalers.relative_time_idx.weight f4 [8, 1]
0	0xbdfc35e0	-0.12314963
1	0x3ede6fa4	0.4344455
2	0xbf540b40	-0.82829666
3	0x3e690990	0.22757554
4	0xbf46b55c	-0.7762048
5	0x3f4a106c	0.7893131
6	0xbec9d0a8	-0.39417005
7	0x3e510a60	0.20414114

prescalers.relative_time_idx.bias f4 [8]
0	0x3f12ad5c	0.57295775
1	0xbe6cbacc	-0.23118132
2	0xbe87731d	-0.26455012
3	0x3ece409d	0.4028367
4	0xbf364046	-0.71191823
5	0xbdbfddd1	-0.0936848
6	0x3f4c67ac	0.7984569
7	0x3ee5f936	0.44916695

prescalers.close.weight f4 [8, 1]
0	0x3e8da7d8	0.27667117
1	0xbf600254	-0.8750355
2	0xbe252d28	-0.16130507
3	0xbf7c3da4	-0.98531556
4	0xbefd08c4	-0.4942075
5	0xbddaf160	-0.1069057
6	0xbec18524	-0.3779689
7	0x3ed23094	0.41052687

prescalers.close.bias f4 [8]
0	0x3df0c040	0.11755419
1	0x3f66ac1c	0.9010637
2	0x3f24c4e8	0.64362955
3	0x3e2405bf	0.16017817
4	0xbf72de47	-0.9487042
5	0x3d707539	0.058705542
6	0xba396e6f	-0.0007073646
7	0x3d10260b	0.03519253

prescalers.volume.weight f4 [8, 1]
0	0x3f37c590	0.7178583
1	0xbf0a9cc8	-0.5414548
2	0xbe81f79c	-0.25384223
3	0xbf699154	-0.9123738
4	0xbf69cca8	-0.91327906
5	0xbf40fe2c	-0.75387836
6	0x3f02d2b8	0.5110278
7	0xbf16921a	-0.58816683

prescalers.volume.bias f4 [8]
0	0x3f555819	0.8333755
1	0x3f493bb9	0.78606755
2	0x3f132a61	0.5748654
3	0xbeb89fd3	-0.36059436
4	0x3f1a75e3	0.6033613
5	0x3ea61ce8	0.3244393
6	0x3eb95538	0.3619783
7	0xbeda9db7	-0.42698452

prescalers.log_volume.weight f4 [8, 1]
0	0x3f4b5eec	0.79441714
1	0x3ef770c8	0.48328233
2	0xbe33fd80	-0.17577171
3	0x3eec208c	0.4611858
4	0xbf2a977c	-0.66637397
5	0xbdb15800	-0.08659363
6	0xbf54891e	-0.83021724
7	0xbf6472cc	-0.89237666

prescalers.log_volume.bias f4 [8]
0	0x3f436dc8	0.7633939
1	0x3f3c363b	0.7352025
2	0xbe457795	-0.19283898
3	0xbe6718bf	-0.22568034
4	0xbf21e325	-0.6323722
5	0xbef14910	-0.47126055
6	0xbe57a474	-0.21058828
7	0x3efadd8d	0.48997155

prescalers.avg_volume_by_ticker.weight f4 [8, 1]
0	0x3f750bac	0.95720935
1	0x3f05acd8	0.52216864
2	0xbf0f380a	-0.55944884
3	0xbeb48224	-0.3525554
4	0x3dff64e0	0.12470412
5	0xbf1878f6	-0.5955957
6	0x3f650540	0.89461136
7	0xbf17bc94	-0.5927212

prescalers.avg_volume_by_ticker.bias f4 [8]
0	0x3f43c81b	0.7647721
1	0x3e3c1521	0.18367435
2	0x3f828b0d	1.0198685
3	0x3f505f64	0.81395555
4	0x3e3cadb6	0.1842564
5	0x3f5f651f	0.87263674
6	0xbd2ae511	-0.04172236
7	0x3eae4782	0.3403893

static_variable_selection.flattened_grn.resample_norm.mask f4 [4]
0	0xbcc6f56c	-0.024286948
1	0x3e1a548a	0.15071312
2	0xbe2ef3d0	-0.17085195
3	0xbd5c0604	-0.053716674

static_variable_selection.flattened_grn.resample_norm.norm.weight f4 [4]
0	0x3f7258da	0.94666827
1	0x3f9adb98	1.2098265
2	0x3f5507cd	0.8321503
3	0x3f768b29	0.9630609

static_variable_selection.flattened_grn.resample_norm.norm.bias f4 [4]
0	0xbd70a1e9	-0.05874816
1	0xbe494ca0	-0.19658136
2	0x3e72e4c3	0.23720078
3	0xbcf99f61	-0.030471506

static_variable_selection.flattened_grn.fc1.weight f4 [4, 25]
0	0x3ea2181d	0.31659022
1	0xbe277eb3	-0.16356926
2	0x3e4824c8	0.19545281
3	0x3da00fea	0.07815535
4	0xbdf70771	-0.12061966
5	0xbea85883	-0.3288003
6	0xbeb64c2f	-0.35604998
7	0x3d8acb76	0.06777088
8	0xbd988624	-0.0744746
9	0xbe8cbb68	-0.2748673
10	0x3ef37afb	0.47554764
11	0xbe1d7968	-0.15378344
12	0xbe0dfc46	-0.13865766
13	0xbe009f2b	-0.12560718
14	0xbd8bb12d	-0.06820903
15	0x3dd3b9db	0.103381835
16	0xbe3afd7e	-0.18260762
17	0xbe6e2c81	-0.23259164
18	0x3c41c90e	0.01182772
19	0xbe1d730d	-0.1537592
20	0x3efcccd5	0.49375024
21	0x3f079bd3	0.52972144
22	0xbd99a0ea	-0.07501395
23	0x3e877c49	0.2646201
24	0xbe567a42	-0.20945075
25	0x3f02798c	0.50966716
26	0xbe4f6a32	-0.20255354
27	0xbee2e2d6	-0.44313687
28	0xbe62528f	-0.22101806
29	0x3f361bc7	0.71136135
30	0xbdc9b5b8	-0.09849113
31	0x3e9a7ea6	0.3017475
32	0x3e8a2dba	0.26988012
33	0x3eaabf4e	0.3334908
34	0x3d420850	0.04737121
35	0x3ef8fea1	0.48631766
36	0xbe702101	-0.2345009
37	0x3e8721de	0.26393026
38	0x3d2b1faf	0.041778263
39	0x3e9e2392	0.30886513
40	0x3e9c01b0	0.30470037
41	0x3ed50036	0.41601723
42	0xbde89759	-0.11356992
43	0x3ea59cb0	0.32346106
44	0x3ee0423a	0.43800527
45	0xbe39689f	-0.18106316
46	0xbf38f0ea	-0.72242606
47	0xbdcc7572	-0.099833384
48	0x3d87610b	0.06610306
49	0xbeb5a616	-0.35478276
50	0xbeb1ed50	-0.34751368
51	0xbe4730c1	-0.19452192
52	0x3e6fd607	0.23421489
53	0x3e124abb	0.1428632
54	0x3c52540f	0.012837424
55	0x3e893056	0.2679469
56	0x3ed52406	0.41629046
57	0x3cd580c2	0.026062373
58	0x3e8c2a41	0.27375987
59	0x3e11029a	0.14161149
60	0xbedde9bf	-0.43342397
61	0xbe2171d8	-0.15766084
62	0x3e7a8841	0.24466039
63	0xbd8726ce	-0.06599198
64	0x3ea21adf	0.31661126
65	0xbdbbf8ed	-0.09178338
66	0xbf068fa3	-0.5256292
67	0x3e661f8b	0.2247297
68	0xbf4054f9	-0.7512966
69	0x3e02f87a	0.12790099
70	0x3f17ba5d	0.5926874
71	0xbe90bb4a	-0.2826789
72	0xbeebfd35	-0.4609162
73	0xbe7d1993	-0.24716787
74	0xbe6142d3	-0.21998148
75	0x3e505008	0.2034303
76	0xbd345107	-0.044022586
77	0xbe51dca4	-0.20494324
78	0xbe3841fe	-0.17993924
79	0xbf23abb3	-0.6393387
80	0xbccc62c0	-0.024949431
81	0x3e8544aa	0.2602895
82	0xbe81ed5e	-0.2537641
83	0x3e657a9f	0.22410057
84	0x3bc74acd	0.006081915
85	0x3f064256	0.5244497
86	0x3e2df9c6	0.16989812
87	0x3e6a59da	0.22885838
88	0xbe1445b7	-0.14479719
89	0x3e72d6cc	0.23714751
90	0x3d6844f8	0.0567064
91	0xbd85aa3b	-0.065266095
92	0xbeac0658	-0.3359859
93	0x3e71cfa8	0.23614371
94	0xbe3a5a1b	-0.18198435
95	0x3d6f4642	0.058416612
96	0xbd55399b	-0.05205689
97	0x3dd7f141	0.105440624
98	0xbdb32a8d	-0.0874835
99	0x3f1a330c	0.6023414

static_variable_selection.flattened_grn.fc1.bias f4 [4]
0	0x3d617270	0.055040777
1	0xbc72a0ee	-0.014808876
2	0x3c933765	0.01797075
3	0x3dc97a8a	0.098378256

static_variable_selection.flattened_grn.fc2.weight f4 [4, 4]
0	0x3e939b10	0.2882924
1	0x3e60b9b4	0.2194584
2	0x3e946147	0.28980467
3	0x3ee9ccd5	0.45664087
4	0xbfe61cd0	-1.7977543
5	0x3f305eb2	0.68894494
6	0x3f5d5b3f	0.86467355
7	0xbeed67af	-0.46368167
8	0x3ea66b62	0.32503802
9	0x3f938ea9	1.1527911
10	0x3f29a691	0.66269785
11	0xbfa17d01	-1.2616273
12	0xbe89b7cb	-0.26898035
13	0x3f9d3866	1.2282836
14	0xbe8ba0d7	-0.2727115
15	0x3f24ced8	0.6437812

static_variable_selection.flattened_grn.fc2.bias f4 [4]
0	0x3dfc2a93	0.12312808
1	0xbc898993	-0.016789233
2	0xbd2dcba5	-0.04243054
3	0xbcce136c	-0.025155745

static_variable_selection.flattened_grn.gate_norm.glu.fc.weight f4 [8, 4]
0	0x3e829599	0.2550476
1	0xbe7805b9	-0.24220933
2	0x3ec5e81f	0.38653657
3	0xbde6521b	-0.11246129
4	0xbe9d3952	-0.30707794
5	0x3ecc1c07	0.39865133
6	0xbd5f9733	-0.054587554
7	0x3db377be	0.087630734
8	0x3f3ce729	0.7379022
9	0x3f431f54	0.7621968
10	0x3e0e4215	0.13892396
11	0x3ed0c9f0	0.40779066
12	0xbdf10f7f	-0.11770534
13	0xbead037b	-0.33791718
14	0x3f2c606a	0.67334616
15	0x3ec78864	0.38971245
16	0x3edc08f1	0.42975572
17	0xbea16b6f	-0.31527278
18	0x3ed91772	0.424007
19	0x3f0ca858	0.5494437
20	0x3da1f5dd	0.07908223
21	0x3ee40a0d	0.44538918
22	0xbf23eb9b	-0.6403138
23	0x3e95e584	0.2927667
24	0xbe8adb78	-0.27120566
25	0x3f17d36f	0.59307
26	0x3e9e1cda	0.30881387
27	0x3f4ac3c9	0.79204994
28	0xbe85d0bd	-0.26135817
29	0x3d6354fc	0.05550097
30	0x3f0fd6a9	0.5618692
31	0xbf0a04ee	-0.5391377

static_variable_selection.flattened_grn.gate_norm.glu.fc.bias f4 [8]
0	0xbd278a1c	-0.040903196
1	0xbe2b4b6d	-0.16727991
2	0x3e1c3348	0.15253937
3	0xbd119d1c	-0.03555022
4	0xbd1e73ae	-0.03868454
5	0xbc26f2e5	-0.0101897465
6	0xbe212eee	-0.15740559
7	0x3c3d4227	0.0115514165

static_variable_selection.flattened_grn.gate_norm.add_norm.norm.weight f4 [4]
0	0x3f4cc496	0.79987466
1	0x3f3d2646	0.73886526
2	0x3f4ef597	0.8084349
3	0x3f550815	0.8321546

static_variable_selection.flattened_grn.gate_norm.add_norm.norm.bias f4 [4]
0	0xbe3c8257	-0.18409096
1	0x3e72d66c	0.23714608
2	0x3e768c08	0.24076855
3	0xbe19c69b	-0.15017168

static_variable_selection.single_variable_grns.ticker.mask f4 [16]
0	0xbde0e493	-0.10981097
1	0x3e685cec	0.22691697
2	0x3e276624	0.16347557
3	0xbdb5905d	-0.08865426
4	0xbe958fb2	-0.29211193
5	0x3d4dee99	0.050276373
6	0xbde1f92f	-0.11033856
7	0xbe23b735	-0.15987857
8	0xbdc0fcac	-0.09423193
9	0x3e5de943	0.21671014
10	0xbd30d03f	-0.04316735
11	0x3e6811a3	0.22662978
12	0x3eb2c5b7	0.3491647
13	0xbe8ef90f	-0.27924392
14	0xbe89163c	-0.26774776
15	0x3bd3e9ce	0.0064670807

static_variable_selection.single_variable_grns.ticker.norm.weight f4 [16]
0	0x3f68c52b	0.90925854
1	0x3f70fcbe	0.94135654
2	0x3f5eb026	0.8698753
3	0x3f36288c	0.7115562
4	0x3f91bb4f	1.1385287
5	0x3f6e8e0b	0.9318549
6	0x3f7d4100	0.9892731
7	0x3f85fa6c	1.0467048
8	0x3f6c06f3	0.92198104
9	0x3f5e8553	0.86922187
10	0x3f51eae8	0.81999063
11	0x3f65c82c	0.89758563
12	0x3f90ffa2	1.1328013
13	0x3f838002	1.027344
14	0x3f81706b	1.0112432
15	0x3f6aea59	0.91763836

static_variable_selection.single_variable_grns.ticker.norm.bias f4 [16]
0	0xbd2bcead	-0.04194515
1	0x3e156f86	0.14593324
2	0x3e03ff41	0.1289034
3	0x3d1752ed	0.03694432
4	0xbe925432	-0.2857986
5	0x3cf6528f	0.030068664
6	0xbdaf7ae2	-0.0856836
7	0xbe34f418	-0.1767124
8	0xbdae9714	-0.085249096
9	0x3e2f6755	0.17129262
10	0x3dcdd78f	0.1005088
11	0x3e2317df	0.15927075
12	0x3e94db7b	0.290737
13	0xbe8206fe	-0.2539596
14	0xbdf25c40	-0.118340015
15	0xbc596882	-0.0132695455

static_variable_selection.single_variable_grns.encoder_length.resample_norm.mask f4 [16]
0	0x3c360765	0.011110161
1	0xb9a5cf44	-0.00031625677
2	0xbb3a1870	-0.0028395914
3	0xbb449b90	-0.002999995
4	0x3ddc752e	0.10764538
5	0xbd92363b	-0.0713925
6	0xbc9759b0	-0.018475384
7	0x3d534a1a	0.05158434
8	0x3c9a6245	0.018845687
9	0xbc608d7b	-0.013705607
10	0x39447bf8	0.00018738199
11	0xbc0630fd	-0.008190391
12	0xbd1d063b	-0.03833602
13	0x3d91f1ac	0.071261734
14	0xbc0a2ec4	-0.008434001
15	0xbda6adc4	-0.08138612

static_variable_selection.single_variable_grns.encoder_length.resample_norm.norm.weight f4 [16]
0	0x3f7d7f61	0.9902249
1	0x3f801b9c	1.0008426
2	0x3f7f223c	0.9966161
3	0x3f81342e	1.0094049
4	0x3f8e0edc	1.1098285
5	0x3f6cbe7c	0.92478156
6	0x3f7bc4ce	0.98347175
7	0x3f8541c5	1.0410696
8	0x3f7cfdbb	0.9882466
9	0x3f84182f	1.031988
10	0x3f86600a	1.0498059
11	0x3f81c76b	1.0138983
12	0x3f86fee4	1.0546536
13	0x3f7c1b26	0.98478925
14	0x3f7df6e4	0.9920485
15	0x3f68c760	0.9092922

static_variable_selection.single_variable_grns.encoder_length.resample_norm.norm.bias f4 [16]
0	0xbccfc131	-0.025360676
1	0x3a541ebd	0.00080917386
2	0xbb4f991b	-0.0031676951
3	0x3c5cfc95	0.013487955
4	0xbddc85c1	-0.10767699
5	0x3d77608c	0.06039481
6	0x3c6e48da	0.014543736
7	0xbd8508f7	-0.064958505
8	0xbd1a5caf	-0.037686046
9	0x3d441806	0.047874473
10	0x3d47e8e8	0.0488061
11	0x3cd255aa	0.025675613
12	0x3dd71727	0.10502463
13	0xbdfff2a1	-0.1249745
14	0x3b8354c6	0.0040079085
15	0x3d774c55	0.06037553

static_variable_selection.single_variable_grns.encoder_length.fc1.weight f4 [8, 8]
0	0xbe006818	-0.12539709
1	0xbd723174	-0.059129193
2	0xbf36fb71	-0.7147742
3	0x3d55ee5e	0.052229278
4	0xbee43e1a	-0.4457863
5	0xbe766a24	-0.24063927
6	0xbe249e2a	-0.1607596
7	0x3eb8fe4a	0.36131507
8	0x3f111bee	0.5668324
9	0xbf09011f	-0.53517336
10	0x3e86c8e4	0.26325142
11	0x3d9041c2	0.07043792
12	0x3dc640cc	0.09680328
13	0xbec360e7	-0.38159868
14	0x3f030e4c	0.5119369
15	0xbe26989a	-0.1626915
16	0xbd8aba52	-0.06773819
17	0x3f1b0124	0.60548615
18	0xbf34a9b9	-0.70571476
19	0xbe86c697	-0.26323387
20	0x3dd8b612	0.10581602
21	0xbf293241	-0.66092306
22	0xbecdd264	-0.40199578
23	0x3f0bd1bd	0.5461691
24	0xbe90c5a3	-0.28275785
25	0x3f79972e	0.97496307
26	0xbe88098e	-0.2656979
27	0x3e64142d	0.22273321
28	0x3cfb7fe6	0.030700635
29	0xbed37c8c	-0.4130596
30	0xbea37f68	-0.3193314
31	0x3f0008d0	0.50013447
32	0x3fa89524	1.3170514
33	0xbf241711	-0.64097697
34	0x3f37cf11	0.71800333
35	0x3def6612	0.1168939
36	0xbe0bfb97	-0.13670193
37	0x3d901fbd	0.070373036
38	0x3efdc7ac	0.495664
39	0x3df7baec	0.120961994
40	0xbe2aeb42	-0.16691306
41	0x3f055fbf	0.5209922
42	0x3f017e06	0.5058292
43	0x3e13bb45	0.14426906
44	0x3df22b92	0.11824717
45	0xbf4bc445	-0.7959636
46	0x3f398e67	0.72482914
47	0xbe01e5ba	-0.1268529
48	0x40007482	2.007111
49	0x3fb1c4ee	1.3888223
50	0xbf26e375	-0.6519082
51	0xbe29dfe0	-0.16589308
52	0xbeb64648	-0.35600495
53	0xbf7438ec	-0.95399356
54	0xbec41852	-0.38299805
55	0x3f19b355	0.60039264
56	0xbb6407eb	-0.0034794759
57	0x3c7900ec	0.015197974
58	0x3f098420	0.5371723
59	0x3ecca112	0.39966637
60	0x3e53d4f0	0.20686698
61	0xbe053001	-0.13006593
62	0x3ea09a0f	0.31367537
63	0xbd5a570b	-0.053305667

static_variable_selection.single_variable_grns.encoder_length.fc1.bias f4 [8]
0	0xbc94f686	-0.018183958
1	0xbc778c41	-0.015109123
2	0xbc6783be	-0.014130531
3	0xbc7fac8c	-0.015605103
4	0x3c279bf3	0.010230052
5	0xbc9f450e	-0.019442108
6	0x3d748da5	0.059705395
7	0xbc17a40f	-0.009255423

static_variable_selection.single_variable_grns.encoder_length.fc2.weight f4 [8, 8]
0	0x3e81fa16	0.25386113
1	0x3e9d967d	0.30778876
2	0x3fa066e1	1.2531396
3	0x3e11d0ee	0.14239857
4	0xbe209644	-0.15682322
5	0x3ecbea5c	0.3982724
6	0x3e7d074c	0.24709815
7	0xbebb0a74	-0.36531413
8	0x3f3d0a49	0.7384382
9	0x3dd6a797	0.10481184
10	0xbf3119e0	-0.6918011
11	0xbee54685	-0.44780365
12	0x3f201af0	0.62541103
13	0x3ef99e8e	0.4875378
14	0xbda1a393	-0.078925274
15	0xbf411b07	-0.75431865
16	0xbbc7b78e	-0.0060948795
17	0x3e5a4205	0.21314247
18	0x3ea44b3b	0.32088646
19	0xbdf75fed	-0.12078843
20	0x3d428970	0.047494352
21	0x3f21e126	0.63234174
22	0x3c8634f4	0.016382672
23	0x3ee214c7	0.44156477
24	0xbea1ebef	-0.31625316
25	0x3d976f30	0.07394254
26	0xbe87314b	-0.26404795
27	0x3ea83142	0.3285008
28	0xbf196658	-0.5992179
29	0xbcea66f4	-0.028613545
30	0xbda82e67	-0.082119755
31	0xbf3356c7	-0.70054287
32	0x3f10a8d3	0.56507605
33	0x3edbf813	0.42962703
34	0xbdfe59ed	-0.12419496
35	0xbe77ca9a	-0.2419838
36	0x3f18aa32	0.596347
37	0x3e0bfe73	0.13671283
38	0x3e86b01c	0.26306236
39	0xbe271ea1	-0.16320278
40	0xbe504cea	-0.2034184
41	0xbf04dea2	-0.5190221
42	0x3e4e6933	0.20157318
43	0x3e074d09	0.1321298
44	0x3f532641	0.82480246
45	0xbd6a6a67	-0.05723038
46	0x3f48a7c5	0.78380996
47	0xbeb43fed	-0.35205022
48	0x3ef1c10b	0.47217593
49	0x3db69f10	0.089170575
50	0xbc5030bd	-0.012706933
51	0x3e80881d	0.25103846
52	0x3f047c75	0.51752406
53	0x3f5d3a45	0.8641704
54	0xbecfdb44	-0.40596974
55	0x3ec0eded	0.37681523
56	0xbf557454	-0.8338063
57	0xbd877dda	-0.06615801
58	0xbd46b580	-0.048512936
59	0xbde50db7	-0.111842565
60	0x3e15120d	0.14557667
61	0x3e9862f8	0.29763007
62	0xbe63ab18	-0.22233236
63	0x3e436cfd	0.19084544

static_variable_selection.single_variable_grns.encoder_length.fc2.bias f4 [8]
0	0xbc1802fd	-0.009278056
1	0x3bbcc8e8	0.0057612546
2	0xbc9a6651	-0.018847616
3	0xbcbb7495	-0.02288274
4	0x3cc475dc	0.023981981
5	0x3d914762	0.07093693
6	0xbc8d82a7	-0.017274214
7	0x3c85199a	0.01624756

static_variable_selection.single_variable_grns.encoder_length.gate_norm.glu.fc.weight f4 [32, 8]
0	0xbde9bd55	-0.11413065
1	0xbeb1dfd5	-0.34741083
2	0x3ebd6bb7	0.36996242
3	0x3e7b4a51	0.24540068
4	0x3e42f05b	0.19037001
5	0x3e3d11eb	0.18463866
6	0x3ec99731	0.39373162
7	0xbe15374a	-0.14571872
8	0x3dc682e3	0.096929334
9	0xbe02c012	-0.12768582
10	0xbd80be1b	-0.0628626
11	0xbea36e16	-0.31919926
12	0x3e6d7d9b	0.23192446
13	0xbe8dabc4	-0.2767011
14	0xbe313753	-0.17306261
15	0x3eabf0c8	0.3358214
16	0xbe6c7b56	-0.23093924
17	0x3d4aa4fd	0.04947375
18	0xbeb5741d	-0.3544015
19	0xbe68b467	-0.22725068
20	0x3eb782ea	0.35842067
21	0x3e510296	0.20411143
22	0x3cb1631f	0.02165371
23	0xbe475583	-0.19466214
24	0x3e9c7c42	0.3056355
25	0x3eb8ef0a	0.36119872
26	0x3d8a9918	0.067674816
27	0xbe7047d7	-0.23464905
28	0x3c02f6bd	0.007993397
29	0x3e5381c0	0.20654964
30	0x3dbdc35d	0.09265778
31	0x3eaec39b	0.3413361
32	0x3e64536f	0.22297452
33	0x3e7c6f02	0.24651721
34	0xbe77800b	-0.24169938
35	0xbd95a199	-0.07306213
36	0x3dd451db	0.10367175
37	0xbe1bb817	-0.15206943
38	0x3e365880	0.17807198
39	0x3e9f2e07	0.31089804
40	0xbe19ecf7	-0.15031801
41	0xbe128276	-0.1430758
42	0xbe9936a5	-0.29924503
43	0x3dc996ef	0.098432414
44	0x3e5226c1	0.20522596
45	0x3eb88717	0.36040565
46	0xbc701280	-0.014652848
47	0x3e5df13c	0.21674055
48	0xbeb698e0	-0.3566351
49	0xbc8650d1	-0.016395958
50	0xbd941f20	-0.07232499
51	0xbe327d76	-0.17430672
52	0x3eb739fe	0.35786432
53	0x3e76e404	0.24110419
54	0xbea91fa9	-0.33031967
55	0xbeb821ca	-0.3596328
56	0xbe5ca5a9	-0.2154757
57	0x3e13b063	0.14422755
58	0x3e3c6d22	0.18401006
59	0x3e317d9c	0.17333072
60	0x3ea1e566	0.3162033
61	0xbe8531e3	-0.26014623
62	0x3d4146c2	0.04718662
63	0xbe0d8aba	-0.13822451
64	0xbe557576	-0.20845589
65	0x3c781195	0.015140911
66	0xbd13facf	-0.03612786
67	0xbeaddd12	-0.33957726
68	0x3bb6d952	0.005580106
69	0x3e33fcce	0.17576906
70	0x3eb787bc	0.35845745
71	0xbd9986ce	-0.07496415
72	0x3e974a27	0.2954876
73	0xbdc8ed80	-0.098109245
74	0xbe90e9bf	-0.28303334
75	0x3eb3cbed	0.3511652
76	0xbdd72b8e	-0.10506354
77	0xbdb6349f	-0.088967554
78	0xbd99594f	-0.074877374
79	0x3ea66392	0.3249784
80	0xbdda9f90	-0.106749654
81	0xbe054fca	-0.13018718
82	0xbb6628f4	-0.0035119625
83	0xbe5e058c	-0.21681803
84	0x3e071b21	0.13193943
85	0x3eb61c1b	0.35568318
86	0x3dcd27e6	0.10017376
87	0xbdf5d2e7	-0.12003117
88	0xbd61cad1	-0.05512506
89	0xbec4afea	-0.38415462
90	0xbe9c5648	-0.30534577
91	0xbdd1bf78	-0.10241598
92	0x3e54bd1b	0.20775263
93	0x3eb70992	0.3574949
94	0xbcf56951	-0.029957445
95	0xbd36c10f	-0.04461771
96	0x3ea7bfc2	0.32763487
97	0xbde3f0ce	-0.11129914
98	0xbe8bbb69	-0.2729142
99	0x3e82e3e9	0.25564507
100	0xbe415686	-0.18880662
101	0xbe8dac2c	-0.2767042
102	0xbcdcde04	-0.026961334
103	0xbe8d3c3c	-0.27585018
104	0xbecc81fb	-0.39942917
105	0xbe326659	-0.17421855
106	0xbc97fd73	-0.018553471
107	0x3da69f70	0.08135879
108	0xbe0228a3	-0.12710814
109	0xbec09ae1	-0.37618163
110	0xbdaf4336	-0.08557741
111	0x3ecd7281	0.40126422
112	0xbdb9541c	-0.09049246
113	0xbe909e16	-0.2824561
114	0xbe16d8de	-0.14731166
115	0x3eb1433d	0.3462161
116	0x3d73f68b	0.059561294
117	0xbd4daade	-0.05021178
118	0x3ec25cf2	0.37961537
119	0x3d30f176	0.043199025
120	0x3dd28f83	0.10281279
121	0x3eba40cd	0.36377564
122	0xbd2a0ed8	-0.041518062
123	0xbd3a4d6b	-0.045483988
124	0x3e985896	0.29755086
125	0x3e0261df	0.12732647
126	0xbe8fc8ff	-0.28083035
127	0x3e58fe61	0.21190788
128	0xbe2326cc	-0.15932769
129	0xbeaa6f34	-0.33287966
130	0x3eaef215	0.3416907
131	0xbe9234ac	-0.2855581
132	0xbe29508a	-0.1653463
133	0xbd7a17b6	-0.06105777
134	0xbbbf1278	-0.005831059
135	0xbd2906c4	-0.041266218
136	0x3e91884b	0.28424296
137	0x3e94f326	0.29091758
138	0xbeb0240a	-0.34402496
139	0xbeb898d8	-0.3605411
140	0xbec1b70c	-0.37834966
141	0x3ea498e3	0.32147893
142	0xbd38d13c	-0.045121416
143	0xbe427e25	-0.18993433
144	0xbe82b6c6	-0.2553007
145	0x3d4fb184	0.0507064
146	0x3de25e3a	0.110531285
147	0x3e64aeaf	0.22332262
148	0x3e9fce9d	0.3121232
149	0x3eb10323	0.34572706
150	0xbe85989c	-0.26092994
151	0xbca22f15	-0.019797841
152	0xbe857dfe	-0.26072687
153	0xbe0a361c	-0.13497204
154	0x3c83931a	0.016061354
155	0x3e54be6b	0.20775764
156	0xbe2d030f	-0.16895698
157	0xbe650c32	-0.22367933
158	0xbdbc96de	-0.09208463
159	0x3e2961fc	0.16541284
160	0x3be7680c	0.007061964
161	0x3e952de7	0.29136583
162	0xbeb25486	-0.3483011
163	0x3e0ed88b	0.13949792
164	0x3e96cfe4	0.29455483
165	0x3e7a58c3	0.24447922
166	0xbeacbffc	-0.33740222
167	0xbe8336ef	-0.25627849
168	0xbc94bcd3	-0.018156445
169	0x3c1d476a	0.009599546
170	0x3e6e2fe0	0.2326045
171	0x3e9c425f	0.30519387
172	0xbc947c77	-0.018125756
173	0xbdebc75e	-0.11512636
174	0x3e61098a	0.21976295
175	0xbe748837	-0.23880087
176	0xbe38993a	-0.18027201
177	0x3d46bc8a	0.04851965
178	0xbd8529fa	-0.06502147
179	0x3e6e2492	0.23256138
180	0xbd9ab506	-0.07554059
181	0x3d254f12	0.04035861
182	0x3de5fd1a	0.11229916
183	0xbd01785d	-0.031608928
184	0xbdecd406	-0.11563878
185	0x3e74b3f1	0.23896767
186	0x3e5e0bc6	0.21684179
187	0xbd5741ba	-0.052552916
188	0xbe80f6d4	-0.25188315
189	0xbdfd0ecf	-0.1235634
190	0x3e883ef2	0.26610523
191	0x3e5b6464	0.21425015
192	0xbdf23040	-0.11825609
193	0x3e5508e3	0.20804171
194	0xbd33c240	-0.043886423
195	0xbc5f2681	-0.01362002
196	0xbe3f0414	-0.186539
197	0x3c73c8a3	0.0148793785
198	0xbda97339	-0.0827393
199	0x3dacd9e8	0.0844
200	0xbeb783ee	-0.35842842
201	0xbcd0b088	-0.025474802
202	0xbe99e7df	-0.30059716
203	0xbeb6765d	-0.3563718
204	0xbec6e848	-0.38849092
205	0xbd815233	-0.063145064
206	0x3d93e06f	0.07220542
207	0x3d028f94	0.031875208
208	0x3d91ab84	0.07112792
209	0xbe22c129	-0.15893997
210	0xbe801401	-0.25015262
211	0xbdc2671b	-0.09492322
212	0xbe92aa1d	-0.2864541
213	0xbd6608ed	-0.056160856
214	0x3dc1899b	0.09450074
215	0x3d80f52f	0.06296765
216	0xbeb641ad	-0.35596982
217	0x3ebd37c1	0.369566
218	0x3eab8f11	0.33507589
219	0xbe3510b2	-0.1768215
220	0xbea8a1e1	-0.32936004
221	0x3d5f98cf	0.05458909
222	0x3dbacd34	0.09121171
223	0xbdd00c55	-0.10158602
224	0xbe05c90c	-0.13064975
225	0x3c01d8f1	0.007925258
226	0xbe75e44c	-0.2401287
227	0xbe360650	-0.17775846
228	0x3ddda5b9	0.10822625
229	0x3d2b2c50	0.041790307
230	0x3e0b814e	0.13623545
231	0x3e9fbb71	0.31197694
232	0x3d01d341	0.031695608
233	0x3df676e7	0.120343976
234	0x3e8ba550	0.2727456
235	0xbe690d71	-0.22759034
236	0x3e7dae39	0.24773492
237	0x3e88cbc9	0.26717976
238	0xbe24ce91	-0.16094424
239	0x3e928162	0.28614336
240	0xbe38d10b	-0.18048494
241	0xbe3ce744	-0.18447596
242	0x3e8e50bc	0.2779597
243	0x3e3740b4	0.17895776
244	0xbce0026f	-0.02734491
245	0xbe9d01d9	-0.30665472
246	0x3e643d19	0.22288932
247	0x3dc53983	0.0963011
248	0xbe80f9b7	-0.25190517
249	0xbbcb48f2	-0.006203764
250	0x3e90d01e	0.2828378
251	0x3e1d7080	0.15374947
252	0xbe30bdbc	-0.17259878
253	0xbbbe38d3	-0.005805114
254	0xbe05feca	-0.13085476
255	0x3e881e5b	0.2658566

static_variable_selection.single_variable_grns.encoder_length.gate_norm.glu.fc.bias f4 [32]
0	0xbc55de84	-0.01305354
1	0x3aac380c	0.0013139262
2	0xbb054bfa	-0.0020339475
3	0x3c23340a	0.009961138
4	0xbd9598b2	-0.07304515
5	0x3d24b3d7	0.04021057
6	0x3bd4b4b7	0.0064912695
7	0xbcd5809e	-0.026062306
8	0xbca67ac7	-0.020322217
9	0x3ca66438	0.02031146
10	0x3d10707e	0.03526353
11	0x3c1be9dc	0.009516206
12	0x3d247fdc	0.040161
13	0xbd6dd9d3	-0.05806906
14	0x3a4bd548	0.0007775617
15	0x3cda6d39	0.02666341
16	0x3ad43f74	0.0016193227
17	0xbb062a54	-0.0020472007
18	0x3a4ae4fe	0.0007739811
19	0xbc1471b8	-0.009060316
20	0xbb0a8c34	-0.0021140696
21	0xbc50fd6e	-0.012755735
22	0xbae00237	-0.0017090504
23	0x3bb7016a	0.0055848854
24	0x3bd46816	0.0064821346
25	0x3b9f51c1	0.0048620407
26	0xbc371081	-0.011173368
27	0xbb320564	-0.0027163858
28	0x3ce45a5b	0.027875116
29	0x3c978eaa	0.018500645
30	0xbaa7ccb5	-0.0012802096
31	0xbc4136e4	-0.011792872

static_variable_selection.single_variable_grns.encoder_length.gate_norm.add_norm.norm.weight f4 [16]
0	0x3f7dd365	0.9915069
1	0x3f85775c	1.042705
2	0x3f8acb0e	1.0843217
3	0x3f8117ae	1.0085351
4	0x3f918e7e	1.137161
5	0x3f7b4624	0.981539
6	0x3f84a7cb	1.0363706
7	0x3f87143b	1.0553049
8	0x3f7e30fa	0.9929348
9	0x3f88718e	1.0659654
10	0x3f84dc39	1.0379707
11	0x3f84e4b7	1.0382298
12	0x3f8e0004	1.1093755
13	0x3f8048c4	1.0022206
14	0x3f824044	1.0175862
15	0x3f81b83c	1.0134349

static_variable_selection.single_variable_grns.encoder_length.gate_norm.add_norm.norm.bias f4 [16]
0	0xbc96c967	-0.018406583
1	0x3d4609ea	0.0483493
2	0x3d7da684	0.06192638
3	0x3d18a8d1	0.03727037
4	0xbe0cd431	-0.1375282
5	0x3c0541ed	0.008133394
6	0xbd0baf33	-0.03410263
7	0xbdafc9cb	-0.08583411
8	0xbd275a1b	-0.040857416
9	0x3d9e9b6a	0.07744487
10	0x3d90ffa6	0.07080011
11	0x3d6ebdec	0.058286592
12	0x3e05b736	0.1305817
13	0xbe052302	-0.13001636
14	0xbd00d58a	-0.031453647
15	0xbc8610db	-0.01636546

static_variable_selection.single_variable_grns.close_center.resample_norm.mask f4 [16]
0	0xbab5a1fe	-0.0013857482
1	0xbd2bcfc9	-0.041946206
2	0xbd4e1871	-0.050316278
3	0xb8d7e278	-0.00010294182
4	0x3e656df6	0.22405228
5	0xbd88d5b6	-0.06681387
6	0xbd15d837	-0.03658315
7	0x3d87f942	0.06639339
8	0xbc2f2243	-0.010689321
9	0xbdd5d8cc	-0.10441741
10	0x3d7bd244	0.06147982
11	0xbd6a127e	-0.05714654
12	0xbd94818a	-0.0725127
13	0x3e035f88	0.12829411
14	0xbb1b7d45	-0.002372579
15	0xbc9130c5	-0.01772345

static_variable_selection.single_variable_grns.close_center.resample_norm.norm.weight f4 [16]
0	0x3f77ef9a	0.9684998
1	0x3f6b8f7f	0.9201583
2	0x3f7b7b6a	0.9823519
3	0x3f8b03cc	1.0860534
4	0x3f9c3a27	1.2205247
5	0x3f728bb2	0.9474441
6	0x3f7eeb94	0.99578214
7	0x3f8d9f5f	1.1064261
8	0x3f82904f	1.020029
9	0x3f647c17	0.89251846
10	0x3fa181d9	1.2617751
11	0x3f77b514	0.9676068
12	0x3f8e432c	1.1114249
13	0x3f90a2e3	1.1299709
14	0x3f80b61d	1.0055577
15	0x3f769135	0.9631532

static_variable_selection.single_variable_grns.close_center.resample_norm.norm.bias f4 [16]
0	0xbcd96fda	-0.026542593
1	0xbd8200f7	-0.0634784
2	0xbc7258f4	-0.014791716
3	0x3de6812d	0.11255107
4	0xbe937c25	-0.28805652
5	0x3d45c92a	0.048287548
6	0x3a3ca540	0.0007196255
7	0xbdd747c5	-0.10511736
8	0xbcb36e51	-0.021903189
9	0x3dc6b962	0.09703328
10	0x3e622e93	0.22088079
11	0xbc2afda2	-0.010436447
12	0x3e5eb9ff	0.2175064
13	0xbe3d4eea	-0.18487135
14	0xbc24072b	-0.010011475
15	0x3934c2a4	0.00017238647

static_variable_selection.single_variable_grns.close_center.fc1.weight f4 [8, 8]
0	0x3ec67739	0.38762835
1	0xbee4426e	-0.44581932
2	0xbeca7326	-0.39540976
3	0xbdfe4e94	-0.12417331
4	0xbd5f1308	-0.05446151
5	0x3f21f7d4	0.6326878
6	0x3ef9dc80	0.4880104
7	0xbeae6fe8	-0.34069753
8	0x3f4021c8	0.75051546
9	0x3f14ff7f	0.58202356
10	0xbfb6bdbe	-1.4276655
11	0xbef87797	-0.4852874
12	0x3edbff06	0.42968005
13	0xbeb03637	-0.34416363
14	0x3f07c231	0.5303069
15	0x3e275407	0.16340648
16	0xbf283b93	-0.65715903
17	0xbe72b821	-0.23703052
18	0x3f9cdf81	1.2255708
19	0x3ec127df	0.37725732
20	0x3f3b4bec	0.7316272
21	0xbc62f5de	-0.013852565
22	0x3e9564b5	0.29178396
23	0x3e6e2af1	0.23258568
24	0x3e3c70b0	0.18402362
25	0xbeb18841	-0.34674266
26	0xbdf2df9b	-0.118590556
27	0x3e62ea46	0.2215968
28	0xbebeec5d	-0.37289706
29	0x3ed2f802	0.4120484
30	0x3e969aa5	0.2941486
31	0xbfa6542b	-1.2994436
32	0x3e8e4aee	0.27791542
33	0xbe931488	-0.28726602
34	0x3e96bf17	0.29442665
35	0xbf5177f8	-0.8182368
36	0xbf2b15e1	-0.6683026
37	0x3ef48300	0.47756195
38	0xbef39541	-0.4757481
39	0x3f2f2f40	0.6843147
40	0x3e9fbfe0	0.31201077
41	0xbe2f764f	-0.17134975
42	0xbe8f3cb0	-0.27975988
43	0x3e9930d6	0.2992007
44	0x3ea0ae6f	0.31383082
45	0xbd8a3ffe	-0.06750487
46	0x3f2c37e6	0.67272794
47	0xbe1016e1	-0.14071228
48	0xbf8642f9	-1.0489188
49	0x3c8438e5	0.01614041
50	0xbec69f9e	-0.38793653
51	0x3ebc3565	0.36759487
52	0x3ee549d1	0.4478288
53	0xbd514589	-0.051091705
54	0x3ece691b	0.40314564
55	0xbdc0dd36	-0.09417193
56	0x3f061937	0.52382225
57	0x3f8a10ee	1.0786417
58	0x3f1964c5	0.5991939
59	0x3f19e7cd	0.60119325
60	0x3f08fecd	0.53513795
61	0xbe00da4c	-0.12583274
62	0xbcfc0c4e	-0.030767586
63	0x3eaf0c0b	0.34188876

static_variable_selection.single_variable_grns.close_center.fc1.bias f4 [8]
0	0xbb18206b	-0.0023212682
1	0xbc76025b	-0.01501521
2	0xbb366c1a	-0.002783543
3	0xbe677810	-0.22604394
4	0xbdcb70cf	-0.09933626
5	0xbd2f7e51	-0.042845074
6	0x3cc88fa6	0.02448256
7	0xbaceee44	-0.0015787561

static_variable_selection.single_variable_grns.close_center.fc2.weight f4 [8, 8]
0	0x3e195fe5	0.14977987
1	0x3ee0187c	0.4376868
2	0x3e1f4e0a	0.15557113
3	0x3d2ac5d7	0.04169258
4	0x3f8015d5	1.0006663
5	0xbf09d0e2	-0.53834355
6	0xbf663182	-0.8991929
7	0x3e0cfe6a	0.13768926
8	0x3e855c32	0.26046902
9	0xbd055984	-0.032556072
10	0x3ec738d5	0.38910547
11	0x3d1484cb	0.036259454
12	0x3f1ef6d5	0.62095386
13	0xbf4bcf11	-0.79612833
14	0x3ed0b590	0.4076352
15	0x3eaaf8c0	0.33392906
16	0xbf8c014b	-1.0937895
17	0xbe8e7265	-0.2782165
18	0x3dc09b5d	0.09404633
19	0x3edb70b9	0.42859438
20	0xbf0f6036	-0.5600618
21	0xbf73fdbf	-0.9530906
22	0xbf19040a	-0.5977179
23	0xbe9c716a	-0.30555278
24	0x3e882f42	0.26598555
25	0xbda89f0f	-0.08233463
26	0x3f0062b5	0.50150615
27	0xbf30a27a	-0.6899792
28	0xbec88fa1	-0.3917208
29	0xbf3a0802	-0.7266847
30	0x3d75d462	0.060016997
31	0xbf600c55	-0.8751882
32	0xbc3b3ef0	-0.01142858
33	0x3f520123	0.82032984
34	0xbf72d4eb	-0.9485614
35	0x3f52a22d	0.8227871
36	0xbd133789	-0.035941634
37	0x3c7a96e8	0.015294768
38	0x3ed302aa	0.4121297
39	0xbd59a5be	-0.05313658
40	0x3d99d7c1	0.07511855
41	0xbf408715	-0.7520612
42	0x3ee9c0b3	0.4565483
43	0xbd6a34c0	-0.057179213
44	0x3ef1144a	0.47085792
45	0x3e4168f4	0.18887693
46	0x3ea594c2	0.32340056
47	0xbe13b14c	-0.14423102
48	0xbe886e06	-0.2664644
49	0xbe310efa	-0.1729087
50	0x3f91b784	1.138413
51	0x3f461f5e	0.7739161
52	0xbe53e421	-0.20692493
53	0xbe500ea5	-0.20318086
54	0xbf2fbe79	-0.68650013
55	0xbec4c21d	-0.38429347
56	0xbf362c46	-0.71161306
57	0x3f4e4693	0.8057644
58	0x3f112806	0.56701696
59	0xbdfb97f3	-0.122848414
60	0x3debfaad	0.11522422
61	0xbf036ae3	-0.5133497
62	0x3f63f1bb	0.89040726
63	0x3f5c594d	0.8607376

static_variable_selection.single_variable_grns.close_center.fc2.bias f4 [8]
0	0xbc3489bc	-0.011019167
1	0x3d0200ff	0.03173923
2	0x3d35b35a	0.044360496
3	0x3de4ac01	0.1116562
4	0xbd12ed47	-0.035870817
5	0xbdbf0902	-0.0932789
6	0xbde6f903	-0.11277964
7	0xbc5594c5	-0.013035958

static_variable_selection.single_variable_grns.close_center.gate_norm.glu.fc.weight f4 [32, 8]
0	0xbdea61a7	-0.11444407
1	0xbec26afe	-0.37972254
2	0x3e0e5138	0.1389817
3	0xbcec9551	-0.028879793
4	0xbe731f12	-0.23742321
5	0x3eabb966	0.33539885
6	0x3e839947	0.2570288
7	0xbdefd2e1	-0.11710144
8	0x3e80df28	0.25170255
9	0xbeacc685	-0.33745208
10	0xbea6bdda	-0.3256672
11	0x3e8b5e92	0.2722059
12	0x3e2b0fe3	0.16705279
13	0xbd5b13ff	-0.053485867
14	0xbdb8299c	-0.08992311
15	0xbe9e0c7c	-0.308689
16	0x3dbb87bb	0.09156748
17	0xbbddf3fd	-0.0067734704
18	0xbe9b6061	-0.3034697
19	0xbe808205	-0.25099197
20	0x3e4ecb45	0.20194729
21	0xbe9b659b	-0.30350956
22	0x3d8bc024	0.06823757
23	0x3ec02a81	0.37532428
24	0x3a94617c	0.0011320557
25	0x3e56c4cf	0.20973514
26	0x3e5b1ca0	0.21397638
27	0xbe24c8ef	-0.16092275
28	0xbe2c5b3f	-0.16831683
29	0xbe99f7c7	-0.30071852
30	0xbede1a3d	-0.43379393
31	0xbd05732b	-0.032580536
32	0xbe25a3a8	-0.16175711
33	0xbdcaf3f0	-0.09909809
34	0x3e8655e7	0.26237413
35	0x3e062255	0.13099034
36	0xbde21f24	-0.11041096
37	0x3f0ca882	0.5494462
38	0x3ef27017	0.47351143
39	0x3efa47f8	0.48883033
40	0xbdd7f594	-0.10544887
41	0x3ca437be	0.020046111
42	0xbe26aef2	-0.16277674
43	0x3d7d71ff	0.061876293
44	0x3e8b2772	0.27178532
45	0x3d3cf557	0.04613241
46	0xbddcc922	-0.107805505
47	0x3d0aac84	0.03385593
48	0xbe863569	-0.26212624
49	0xbeb2b7bc	-0.34905803
50	0xbdb8132c	-0.08988032
51	0xbd374650	-0.04474479
52	0xbd90bb9b	-0.07067033
53	0x3e38d713	0.18050794
54	0x3e0bb89c	0.13644642
55	0x3d989692	0.07450594
56	0xbd796e19	-0.060896013
57	0xbceaef3e	-0.028678533
58	0x3de3a795	0.11115948
59	0xbdb98a92	-0.09059633
60	0xbeb0e4cf	-0.34549567
61	0x3e0dd1b1	0.13849522
62	0x3e192b7d	0.14957996
63	0x3df57289	0.119847365
64	0x3e9cf1e7	0.30653307
65	0x3e9a7e70	0.3017459
66	0xbeaf2fe5	-0.34216228
67	0xbdd9e6ff	-0.10639762
68	0x3dc6439d	0.09680865
69	0xbcc5349e	-0.024072941
70	0x3da37919	0.07982082
71	0xbe338dc5	-0.1753455
72	0x3e96b18d	0.29432335
73	0xbe499154	-0.19684345
74	0xbdb9a2f4	-0.09064284
75	0xbed59c0f	-0.41720626
76	0xbae5e9ca	-0.0017540988
77	0x3e3c842a	0.18409792
78	0x3e917a66	0.28413695
79	0xbea76989	-0.32697704
80	0x3eab5dd0	0.3347001
81	0xbd9dc75e	-0.07704042
82	0xbe0c3e7a	-0.13695708
83	0x3eb6df2d	0.35717145
84	0x3e0f5715	0.13998063
85	0xbc4d6932	-0.012537288
86	0xbd9b1f70	-0.075743556
87	0x3d1f2764	0.038855925
88	0xbeb20e02	-0.34776312
89	0x3e6a38fd	0.22873302
90	0x3e47af97	0.19500576
91	0x3c989f45	0.018630633
92	0xbd72ac8d	-0.05924659
93	0x3d00cece	0.031447224
94	0x3d81c414	0.06336227
95	0x3dd6f868	0.104965985
96	0xbdc61a18	-0.09672946
97	0x3e818dd5	0.25303522
98	0xbd73dba6	-0.059535645
99	0xbdf7e610	-0.12104428
100	0x3c25fed7	0.010131559
101	0x3e8c69c7	0.27424452
102	0xbe835de3	-0.25657567
103	0xbe54ba9e	-0.20774314
104	0xbee5b4d0	-0.4486451
105	0x3e924c38	0.28573775
106	0xbd13623e	-0.035982363
107	0x3e03f8bd	0.12887855
108	0xbe578f6e	-0.21050808
109	0x3ecfce20	0.40586948
110	0xbe761ef5	-0.24035247
111	0xbd9dddad	-0.07708297
112	0xbed98aa7	-0.42488596
113	0xbdcb4213	-0.09924712
114	0xbe6d6f9e	-0.2318711
115	0x3d863a92	0.0655414
116	0x3d94c72c	0.072645515
117	0x3d945884	0.072434455
118	0xbd27c6fe	-0.040961258
119	0xbd6b1f69	-0.057403002
120	0xbe8adccd	-0.27121583
121	0xbd2a8a31	-0.041635696
122	0x3ea604d7	0.32425568
123	0x3d216995	0.03940733
124	0x3d8a1156	0.06741588
125	0xbddf1b87	-0.10893922
126	0x3ea89729	0.32927826
127	0x3e5718d9	0.21005572
128	0x3d829194	0.06375423
129	0x3e8ac862	0.27106005
130	0x3ccb130f	0.024789361
131	0x3cf0ffdf	0.029418884
132	0x3dd63618	0.10459536
133	0xbeb755f6	-0.3580777
134	0x3e74a97d	0.2389278
135	0xbe4d7ac1	-0.20066358
136	0xbe696eff	-0.22796248
137	0xbcc0ed91	-0.02355078
138	0xbe95e217	-0.29274055
139	0xbe510604	-0.20412451
140	0x3e8d8ed5	0.27648035
141	0xbd3720dd	-0.044709075
142	0x3e148cbc	0.14506811
143	0x3df1d97e	0.118090615
144	0x3eaf5a2a	0.34248477
145	0xbe2d1184	-0.16901213
146	0xbe554135	-0.20825656
147	0x3ec74df3	0.38926658
148	0xbe8b3778	-0.27190757
149	0xbeb9d0b9	-0.36292055
150	0xbd5f71d7	-0.054551926
151	0x3e7432a8	0.23847449
152	0x3e079f10	0.13244271
153	0xbe7f77b9	-0.24948014
154	0xbe9c4ca5	-0.30527225
155	0x3e1d4194	0.15357047
156	0xbe8ec369	-0.2788346
157	0x3e769569	0.24080433
158	0xbda1769c	-0.07883951
159	0xbe117f84	-0.142088
160	0xbcb14e09	-0.021643655
161	0x3e9d067b	0.30669007
162	0xbe42fdaa	-0.19042078
163	0xbe8151d1	-0.25257733
164	0x3e335ee8	0.17516673
165	0x3dfe2a3c	0.12410399
166	0xbe2ae6e2	-0.16689637
167	0x3e52cf67	0.2058693
168	0xbddc3914	-0.10753074
169	0xbe269034	-0.16265947
170	0xbe996df9	-0.29966715
171	0xbe325e5b	-0.17418806
172	0xbe72aba8	-0.23698294
173	0x3de438e9	0.11143667
174	0xbd8d45f2	-0.06898107
175	0x3e95a309	0.29225948
176	0xbe65f9be	-0.2245855
177	0x3e698c46	0.22807416
178	0x3ea146dc	0.31499374
179	0xbd9b440d	-0.07581339
180	0xbe6f823a	-0.23389521
181	0x3e4d252f	0.20033716
182	0xbeb875a3	-0.3602725
183	0x3e930ec5	0.28722206
184	0x3e87ee5b	0.26549038
185	0xbcaa24e3	-0.020769542
186	0xbe6941b5	-0.22778971
187	0x3d034bad	0.032054592
188	0x3e776582	0.24159816
189	0x3d9773de	0.07395147
190	0x3df433a5	0.11923913
191	0x3e34dc4d	0.17662163
192	0x3e131d67	0.14366685
193	0x3d9b2175	0.07574741
194	0xbe2c3d0b	-0.16820161
195	0x3d928ed6	0.0715615
196	0xbe6b53ef	-0.22981237
197	0x3e734baf	0.2375934
198	0xbe48f78c	-0.19625682
199	0x3ec561fe	0.38551325
200	0x3e5f89df	0.21829937
201	0xbec0924b	-0.37611613
202	0xbe6bfcd1	-0.2304566
203	0xbe02ea14	-0.12784606
204	0xbd545d3b	-0.051846724
205	0xbd3d5521	-0.046223763
206	0xbe290309	-0.16505064
207	0x3e7cabc8	0.24674904
208	0x3dda1a1f	0.106495135
209	0xbd1c270b	-0.03812317
210	0xbe108a4b	-0.14115255
211	0xbe7df58a	-0.24800697
212	0xbe965581	-0.2936211
213	0xbe378f4d	-0.17925759
214	0x3ec2d8f2	0.3805614
215	0x3cd9d442	0.02659047
216	0xbe9681d9	-0.2939594
217	0xbd054a91	-0.032541815
218	0x3d0620a2	0.032745965
219	0x3e1bb68d	0.15206356
220	0x3d3cda96	0.046106897
221	0x3e91f20a	0.28504974
222	0xbe3ee73a	-0.18642893
223	0xbd76e717	-0.06027898
224	0xbef0e8c9	-0.470526
225	0xbe0f175a	-0.13973752
226	0xbe8f5309	-0.27993038
227	0x3dc4a580	0.09601879
228	0xbebb44bf	-0.36575887
229	0xbd9371f0	-0.07199466
230	0x3eaf01fb	0.34181198
231	0x3ed9be65	0.42528072
232	0x3e19bd45	0.15013607
233	0x3e4092f3	0.18806057
234	0x3e4df281	0.20112039
235	0xbd87a6c3	-0.06623604
236	0x3e3825d7	0.17983185
237	0xbd92be4a	-0.07165201
238	0xbea2b24f	-0.31776664
239	0x3e7d6a19	0.24747504
240	0xbea332bc	-0.31874645
241	0xbdde3457	-0.10849827
242	0xbebbbfd1	-0.36669782
243	0xbe4e231a	-0.20130578
244	0x3eb49e12	0.35276848
245	0xbc6dd8a1	-0.01451698
246	0x3e216b29	0.15763535
247	0x3df5ae2c	0.11996111
248	0x3e8da84e	0.2766747
249	0x3da2b953	0.07945504
250	0x3c851671	0.016246052
251	0xbe2bd06d	-0.16778727
252	0x3d8ea333	0.069647215
253	0x3db6eb16	0.08931558
254	0xbe89d926	-0.26923484
255	0xbe876403	-0.2644349

static_variable_selection.single_variable_grns.close_center.gate_norm.glu.fc.bias f4 [32]
0	0xbc792139	-0.015205675
1	0xbd4ac0f4	-0.04950042
2	0xbc9dfbc1	-0.019285085
3	0x3da1f3a1	0.07907797
4	0xbe454522	-0.19264653
5	0x3cf62c09	0.030050294
6	0xbc329585	-0.010899906
7	0xbdb6f2dc	-0.089330405
8	0xbc9f4ccf	-0.019445805
9	0x3d623a40	0.055231333
10	0x3dcdf345	0.100561656
11	0xbbef3408	-0.007299904
12	0x3db86f35	0.09005586
13	0xbe0debe5	-0.13859518
14	0xbcd3dbb4	-0.025861599
15	0x3b742c6b	0.003725792
16	0xbbb2639e	-0.005444004
17	0xbce53d36	-0.02798329
18	0xbc9d88c3	-0.019230252
19	0xbc9cb007	-0.019126905
20	0x3d21a2c4	0.039461866
21	0xbc5539f8	-0.013014309
22	0xbc65d4ab	-0.014027755
23	0xbcf18159	-0.029480623
24	0xbd472527	-0.048619416
25	0x3cee3d0f	0.02908185
26	0xbd176f6b	-0.03697149
27	0xbd2db299	-0.042406652
28	0xbd965238	-0.07339901
29	0x3d6efc9a	0.05834637
30	0xbd033f1e	-0.032042615
31	0xbbf88780	-0.0075845122

static_variable_selection.single_variable_grns.close_center.gate_norm.add_norm.norm.weight f4 [16]
0	0x3f63666e	0.8882817
1	0x3f8bc9b9	1.0920936
2	0x3f891517	1.0709561
3	0x3f8f6e9d	1.1205631
4	0x3f9eb4b5	1.2398897
5	0x3f782085	0.9692462
6	0x3f8b411f	1.0879248
7	0x3f90b6c7	1.1305779
8	0x3f78f30b	0.97245854
9	0x3f58cbee	0.8468617
10	0x3fa11f02	1.2587588
11	0x3f727d21	0.9472218
12	0x3f835e57	1.0263165
13	0x3f99875c	1.1994433
14	0x3f8100dc	1.0078387
15	0x3f726c48	0.94696474

static_variable_selection.single_variable_grns.close_center.gate_norm.add_norm.norm.bias f4 [16]
0	0xbd06650c	-0.03281121
1	0x3d9c5ccd	0.07634888
2	0x3d805dea	0.06267913
3	0x3e22c18f	0.15894149
4	0xbead3afc	-0.33834064
5	0x3bb8e400	0.005642414
6	0xbdbcd4e6	-0.09220295
7	0xbe2b411c	-0.16724056
8	0xbd6eb909	-0.058281932
9	0x3da19d84	0.07891372
10	0x3e900c1a	0.28134233
11	0x3d739276	0.059465848
12	0x3e718c2b	0.23588626
13	0xbe727400	-0.23677063
14	0xbd542f54	-0.051802948
15	0xbd855871	-0.065110095

static_variable_selection.single_variable_grns.close_scale.resample_norm.mask f4 [16]
0	0xbd3df480	-0.04637575
1	0x3c4c0826	0.012453115
2	0xbe1bd557	-0.15218101
3	0x3d77e469	0.060520563
4	0x3e6dc14c	0.23218268
5	0xbcaa4bf8	-0.020788178
6	0x3d3a0882	0.04541827
7	0x3def16c1	0.11674262
8	0x3dbc867a	0.09205337
9	0xbe37a63a	-0.17934504
10	0x3d844871	0.064591296
11	0xbc04c8f2	-0.00810455
12	0xbe51c95c	-0.20486969
13	0x3e470d1c	0.19438595
14	0xbde81bda	-0.11333437
15	0x3da9d94f	0.082934014

static_variable_selection.single_variable_grns.close_scale.resample_norm.norm.weight f4 [16]
0	0x3f716b60	0.94304466
1	0x3f8de4cf	1.1085452
2	0x3f557d8c	0.83394694
3	0x3f883058	1.0639753
4	0x3f9fded4	1.2489877
5	0x3f7a8fb3	0.9787552
6	0x3f8546ce	1.0412233
7	0x3f8f3568	1.1188173
8	0x3f8c7ed7	1.0976208
9	0x3f4e20f0	0.8051901
10	0x3f8bcc66	1.0921752
11	0x3f8f237a	1.1182702
12	0x3f5669d5	0.83755237
13	0x3f992e89	1.1967326
14	0x3f508879	0.8145824
15	0x3f8b5810	1.088625

static_variable_selection.single_variable_grns.close_scale.resample_norm.norm.bias f4 [16]
0	0xbd3fe1c3	-0.046846163
1	0x3e2f595d	0.17123933
2	0x3e1f19bd	0.15537162
3	0xbd836869	-0.06416399
4	0xbe83a178	-0.25709128
5	0x3d20ddf9	0.03927419
6	0xbda540b0	-0.08068979
7	0xbe23b3ca	-0.15986553
8	0xbdd70f81	-0.10501004
9	0x3e530d64	0.20610577
10	0xbd4c65cb	-0.049901765
11	0x3e411f08	0.18859494
12	0x3ea28fa4	0.31750214
13	0xbe7fb734	-0.2497223
14	0xbe402335	-0.1876343
15	0x3d9bf65f	0.07615351

static_variable_selection.single_variable_grns.close_scale.fc1.weight f4 [8, 8]
0	0xbe523180	-0.20526695
1	0xbc573afd	-0.0131366225
2	0xbd6a2a71	-0.05716938
3	0x3c894bd3	0.016759789
4	0xbe0d6c81	-0.13810922
5	0xbf270cb6	-0.6525377
6	0x3f45ae74	0.7721932
7	0xbf7498a8	-0.95545435
8	0xbe98682a	-0.2976697
9	0x3edabebd	0.42723647
10	0x3e3fbde5	0.18724783
11	0x3da6e4cd	0.08149109
12	0xbfa2a76d	-1.2707344
13	0xbf3bc32c	-0.73344684
14	0x3f06de5f	0.5268306
15	0xbf21cc6d	-0.63202554
16	0x3eaa64db	0.33280072
17	0xbedc345b	-0.43008694
18	0x3e89ee31	0.26939538
19	0x3e455ce6	0.19273719
20	0xbdb19258	-0.08670491
21	0x3f1852fb	0.5950162
22	0x3f0a7385	0.5408252
23	0x3f621907	0.8831944
24	0x3e9ea7ca	0.30987388
25	0x3f63b1f1	0.8894339
26	0x3eeed805	0.46649185
27	0x3f03cd06	0.51484716
28	0x3e8864b6	0.26639336
29	0x3ed06b6e	0.40706962
30	0xbdb1d987	-0.08684068
31	0x3e6a350a	0.22871795
32	0xbd8d2080	-0.068909645
33	0xbf3ae968	-0.730124
34	0x3db3e137	0.08783191
35	0xbec95914	-0.39325774
36	0x3f101901	0.5628815
37	0x3edce264	0.43141472
38	0x3ece544a	0.40298682
39	0x3faa4743	1.3302997
40	0x3e95c441	0.29251292
41	0x3e640d63	0.22270732
42	0xbe99ef9b	-0.30065617
43	0x3eb1c648	0.3472159
44	0x3f179e15	0.5922559
45	0xbec03f0e	-0.37548107
46	0x3e9f393f	0.31098363
47	0xbdb5c4d9	-0.08875436
48	0x3e41d136	0.18927464
49	0x3e726391	0.23670794
50	0xbf7b4f99	-0.9816833
51	0x3e5a7a50	0.21335721
52	0x3ecd29da	0.40070993
53	0x3f1ec4de	0.62019145
54	0xbf552358	-0.83257055
55	0xbd11e8dc	-0.035622463
56	0x3ceddecb	0.0290369
57	0xbefdffc8	-0.49609208
58	0x3e935aab	0.28780112
59	0x3e384202	0.1799393
60	0xbe0312ac	-0.12800092
61	0x3f7df717	0.99205154
62	0xbee11481	-0.43960956
63	0x3f1cf847	0.6131634

static_variable_selection.single_variable_grns.close_scale.fc1.bias f4 [8]
0	0xbe119039	-0.14215173
1	0xbe4c7d0c	-0.19969577
2	0x3e4a12c1	0.19733717
3	0x3df124f8	0.11774629
4	0x3e1474ba	0.14497653
5	0xbe167a67	-0.1469513
6	0xbe174043	-0.14770608
7	0xbe19c797	-0.15017544

static_variable_selection.single_variable_grns.close_scale.fc2.weight f4 [8, 8]
0	0x3e844610	0.25834703
1	0x3e206ac7	0.15665732
2	0x3edaa218	0.42701793
3	0x3f700347	0.93755
4	0xbf7a1f9d	-0.9770449
5	0x3ecbfe8d	0.39842644
6	0x3f48b13b	0.7839543
7	0x3d1e2aff	0.038615223
8	0x3faa1845	1.3288656
9	0x3f442f0c	0.7663429
10	0xbd9fbe36	-0.07799952
11	0xbde4a481	-0.11164189
12	0xbf873ef7	-1.056609
13	0x3f14076d	0.5782383
14	0x3e6f3909	0.23361601
15	0xbf1e9833	-0.6195099
16	0xbcd2e0a5	-0.025741884
17	0xbe4d66ef	-0.20058797
18	0xbdb7922f	-0.08963429
19	0xbe480784	-0.19534117
20	0x3e238a90	0.15970826
21	0xbe1f8568	-0.15578234
22	0xbe9174d5	-0.28409448
23	0xbd670af6	-0.056406938
24	0x3f156d61	0.58370024
25	0x3c033c6a	0.008010009
26	0xbf126435	-0.57184154
27	0xbe94197a	-0.28925687
28	0xbf1999fb	-0.6000058
29	0x3eb877a3	0.36028776
30	0x3eb19ab5	0.34688345
31	0x3eb0175c	0.34392822
32	0xbdf17a64	-0.11790922
33	0xbd4cdbed	-0.050014425
34	0x3f04a603	0.51815814
35	0xbf2c206f	-0.6723699
36	0x3d31fd4c	0.043454453
37	0xbee4def1	-0.4470134
38	0xbf37185d	-0.7152155
39	0x3defbba3	0.11705711
40	0xbc3b960f	-0.011449351
41	0xbe416df9	-0.18889607
42	0xbea0cbe0	-0.31405544
43	0xbf85578e	-1.0417345
44	0xbdd63d6d	-0.10460935
45	0xbf55e8fe	-0.8355864
46	0x3d80d5f6	0.0629081
47	0x3f22851c	0.6348436
48	0xbf52314f	-0.8210649
49	0xc005ab27	-2.0885713
50	0x3f88bbc7	1.0682305
51	0xbecc87e0	-0.39947414
52	0x3c134ac6	0.008989995
53	0xbef52d07	-0.47885916
54	0x3f52ed8d	0.82393724
55	0x3d553302	0.052050598
56	0xbe24ff8c	-0.16113108
57	0x3f6357f5	0.88806087
58	0xbe5c850c	-0.21535128
59	0xbe23d5b6	-0.15999493
60	0x3ed4a101	0.41529086
61	0x3f3ca23d	0.73685056
62	0xbf17390e	-0.59071434
63	0xbcb823eb	-0.022478065

static_variable_selection.single_variable_grns.close_scale.fc2.bias f4 [8]
0	0xbdfbbc06	-0.12291722
1	0xbe55ba33	-0.2087181
2	0xbe185d39	-0.14879312
3	0x3c216e32	0.009852933
4	0x3e1533ce	0.14570543
5	0xbe3c90a3	-0.1841455
6	0x3e1370be	0.14398476
7	0xbe248d91	-0.16069628
